<?xml version="1.0"?>
<net name="main_graph" version="11">
	<layers>
		<layer id="0" name="images" type="Parameter" version="opset1">
			<data shape="1,3,352,352" element_type="f32" />
			<rt_info>
				<attribute name="old_api_map_element_type" version="0" value="f16" />
			</rt_info>
			<output>
				<port id="0" precision="FP32" names="images">
					<dim>1</dim>
					<dim>3</dim>
					<dim>352</dim>
					<dim>352</dim>
				</port>
			</output>
		</layer>
		<layer id="1" name="/model.20/Constant_2_output_0_compressed" type="Const" version="opset1">
			<data element_type="f16" shape="1, 2, 605" offset="0" size="2420" />
			<output>
				<port id="0" precision="FP16">
					<dim>1</dim>
					<dim>2</dim>
					<dim>605</dim>
				</port>
			</output>
		</layer>
		<layer id="2" name="/model.20/Constant_2_output_0" type="Convert" version="opset1">
			<data destination_type="f32" />
			<rt_info>
				<attribute name="decompression" version="0" />
			</rt_info>
			<input>
				<port id="0" precision="FP16">
					<dim>1</dim>
					<dim>2</dim>
					<dim>605</dim>
				</port>
			</input>
			<output>
				<port id="1" precision="FP32" names="/model.20/Constant_2_output_0">
					<dim>1</dim>
					<dim>2</dim>
					<dim>605</dim>
				</port>
			</output>
		</layer>
		<layer id="3" name="model.0.conv.weight_compressed" type="Const" version="opset1">
			<data element_type="f16" shape="16, 3, 3, 3" offset="2420" size="864" />
			<output>
				<port id="0" precision="FP16">
					<dim>16</dim>
					<dim>3</dim>
					<dim>3</dim>
					<dim>3</dim>
				</port>
			</output>
		</layer>
		<layer id="4" name="model.0.conv.weight" type="Convert" version="opset1">
			<data destination_type="f32" />
			<rt_info>
				<attribute name="decompression" version="0" />
			</rt_info>
			<input>
				<port id="0" precision="FP16">
					<dim>16</dim>
					<dim>3</dim>
					<dim>3</dim>
					<dim>3</dim>
				</port>
			</input>
			<output>
				<port id="1" precision="FP32" names="model.0.conv.weight">
					<dim>16</dim>
					<dim>3</dim>
					<dim>3</dim>
					<dim>3</dim>
				</port>
			</output>
		</layer>
		<layer id="5" name="/model.0/conv/Conv/WithoutBiases" type="Convolution" version="opset1">
			<data strides="1, 1" dilations="1, 1" pads_begin="1, 1" pads_end="1, 1" auto_pad="explicit" />
			<input>
				<port id="0" precision="FP32">
					<dim>1</dim>
					<dim>3</dim>
					<dim>352</dim>
					<dim>352</dim>
				</port>
				<port id="1" precision="FP32">
					<dim>16</dim>
					<dim>3</dim>
					<dim>3</dim>
					<dim>3</dim>
				</port>
			</input>
			<output>
				<port id="2" precision="FP32">
					<dim>1</dim>
					<dim>16</dim>
					<dim>352</dim>
					<dim>352</dim>
				</port>
			</output>
		</layer>
		<layer id="6" name="Reshape_76_compressed" type="Const" version="opset1">
			<data element_type="f16" shape="1, 16, 1, 1" offset="3284" size="32" />
			<output>
				<port id="0" precision="FP16">
					<dim>1</dim>
					<dim>16</dim>
					<dim>1</dim>
					<dim>1</dim>
				</port>
			</output>
		</layer>
		<layer id="7" name="Reshape_76" type="Convert" version="opset1">
			<data destination_type="f32" />
			<rt_info>
				<attribute name="decompression" version="0" />
			</rt_info>
			<input>
				<port id="0" precision="FP16">
					<dim>1</dim>
					<dim>16</dim>
					<dim>1</dim>
					<dim>1</dim>
				</port>
			</input>
			<output>
				<port id="1" precision="FP32">
					<dim>1</dim>
					<dim>16</dim>
					<dim>1</dim>
					<dim>1</dim>
				</port>
			</output>
		</layer>
		<layer id="8" name="/model.0/conv/Conv" type="Add" version="opset1">
			<data auto_broadcast="numpy" />
			<input>
				<port id="0" precision="FP32">
					<dim>1</dim>
					<dim>16</dim>
					<dim>352</dim>
					<dim>352</dim>
				</port>
				<port id="1" precision="FP32">
					<dim>1</dim>
					<dim>16</dim>
					<dim>1</dim>
					<dim>1</dim>
				</port>
			</input>
			<output>
				<port id="2" precision="FP32" names="/model.0/conv/Conv_output_0">
					<dim>1</dim>
					<dim>16</dim>
					<dim>352</dim>
					<dim>352</dim>
				</port>
			</output>
		</layer>
		<layer id="9" name="/model.0/act/Mul" type="Swish" version="opset4">
			<input>
				<port id="0" precision="FP32">
					<dim>1</dim>
					<dim>16</dim>
					<dim>352</dim>
					<dim>352</dim>
				</port>
			</input>
			<output>
				<port id="1" precision="FP32" names="/model.0/act/Mul_output_0">
					<dim>1</dim>
					<dim>16</dim>
					<dim>352</dim>
					<dim>352</dim>
				</port>
			</output>
		</layer>
		<layer id="10" name="/model.1/MaxPool" type="MaxPool" version="opset8">
			<data strides="2, 2" dilations="1, 1" pads_begin="0, 0" pads_end="0, 0" kernel="2, 2" rounding_type="floor" auto_pad="explicit" index_element_type="i64" axis="0" />
			<input>
				<port id="0" precision="FP32">
					<dim>1</dim>
					<dim>16</dim>
					<dim>352</dim>
					<dim>352</dim>
				</port>
			</input>
			<output>
				<port id="1" precision="FP32" names="/model.1/MaxPool_output_0">
					<dim>1</dim>
					<dim>16</dim>
					<dim>176</dim>
					<dim>176</dim>
				</port>
				<port id="2" precision="I64">
					<dim>1</dim>
					<dim>16</dim>
					<dim>176</dim>
					<dim>176</dim>
				</port>
			</output>
		</layer>
		<layer id="11" name="model.2.conv.weight_compressed" type="Const" version="opset1">
			<data element_type="f16" shape="32, 16, 3, 3" offset="3316" size="9216" />
			<output>
				<port id="0" precision="FP16">
					<dim>32</dim>
					<dim>16</dim>
					<dim>3</dim>
					<dim>3</dim>
				</port>
			</output>
		</layer>
		<layer id="12" name="model.2.conv.weight" type="Convert" version="opset1">
			<data destination_type="f32" />
			<rt_info>
				<attribute name="decompression" version="0" />
			</rt_info>
			<input>
				<port id="0" precision="FP16">
					<dim>32</dim>
					<dim>16</dim>
					<dim>3</dim>
					<dim>3</dim>
				</port>
			</input>
			<output>
				<port id="1" precision="FP32" names="model.2.conv.weight">
					<dim>32</dim>
					<dim>16</dim>
					<dim>3</dim>
					<dim>3</dim>
				</port>
			</output>
		</layer>
		<layer id="13" name="/model.2/conv/Conv/WithoutBiases" type="Convolution" version="opset1">
			<data strides="1, 1" dilations="1, 1" pads_begin="1, 1" pads_end="1, 1" auto_pad="explicit" />
			<input>
				<port id="0" precision="FP32">
					<dim>1</dim>
					<dim>16</dim>
					<dim>176</dim>
					<dim>176</dim>
				</port>
				<port id="1" precision="FP32">
					<dim>32</dim>
					<dim>16</dim>
					<dim>3</dim>
					<dim>3</dim>
				</port>
			</input>
			<output>
				<port id="2" precision="FP32">
					<dim>1</dim>
					<dim>32</dim>
					<dim>176</dim>
					<dim>176</dim>
				</port>
			</output>
		</layer>
		<layer id="14" name="Reshape_127_compressed" type="Const" version="opset1">
			<data element_type="f16" shape="1, 32, 1, 1" offset="12532" size="64" />
			<output>
				<port id="0" precision="FP16">
					<dim>1</dim>
					<dim>32</dim>
					<dim>1</dim>
					<dim>1</dim>
				</port>
			</output>
		</layer>
		<layer id="15" name="Reshape_127" type="Convert" version="opset1">
			<data destination_type="f32" />
			<rt_info>
				<attribute name="decompression" version="0" />
			</rt_info>
			<input>
				<port id="0" precision="FP16">
					<dim>1</dim>
					<dim>32</dim>
					<dim>1</dim>
					<dim>1</dim>
				</port>
			</input>
			<output>
				<port id="1" precision="FP32">
					<dim>1</dim>
					<dim>32</dim>
					<dim>1</dim>
					<dim>1</dim>
				</port>
			</output>
		</layer>
		<layer id="16" name="/model.2/conv/Conv" type="Add" version="opset1">
			<data auto_broadcast="numpy" />
			<input>
				<port id="0" precision="FP32">
					<dim>1</dim>
					<dim>32</dim>
					<dim>176</dim>
					<dim>176</dim>
				</port>
				<port id="1" precision="FP32">
					<dim>1</dim>
					<dim>32</dim>
					<dim>1</dim>
					<dim>1</dim>
				</port>
			</input>
			<output>
				<port id="2" precision="FP32" names="/model.2/conv/Conv_output_0">
					<dim>1</dim>
					<dim>32</dim>
					<dim>176</dim>
					<dim>176</dim>
				</port>
			</output>
		</layer>
		<layer id="17" name="/model.2/act/Mul" type="Swish" version="opset4">
			<input>
				<port id="0" precision="FP32">
					<dim>1</dim>
					<dim>32</dim>
					<dim>176</dim>
					<dim>176</dim>
				</port>
			</input>
			<output>
				<port id="1" precision="FP32" names="/model.2/act/Mul_output_0">
					<dim>1</dim>
					<dim>32</dim>
					<dim>176</dim>
					<dim>176</dim>
				</port>
			</output>
		</layer>
		<layer id="18" name="/model.3/MaxPool" type="MaxPool" version="opset8">
			<data strides="2, 2" dilations="1, 1" pads_begin="0, 0" pads_end="0, 0" kernel="2, 2" rounding_type="floor" auto_pad="explicit" index_element_type="i64" axis="0" />
			<input>
				<port id="0" precision="FP32">
					<dim>1</dim>
					<dim>32</dim>
					<dim>176</dim>
					<dim>176</dim>
				</port>
			</input>
			<output>
				<port id="1" precision="FP32" names="/model.3/MaxPool_output_0">
					<dim>1</dim>
					<dim>32</dim>
					<dim>88</dim>
					<dim>88</dim>
				</port>
				<port id="2" precision="I64">
					<dim>1</dim>
					<dim>32</dim>
					<dim>88</dim>
					<dim>88</dim>
				</port>
			</output>
		</layer>
		<layer id="19" name="model.4.conv.weight_compressed" type="Const" version="opset1">
			<data element_type="f16" shape="64, 32, 3, 3" offset="12596" size="36864" />
			<output>
				<port id="0" precision="FP16">
					<dim>64</dim>
					<dim>32</dim>
					<dim>3</dim>
					<dim>3</dim>
				</port>
			</output>
		</layer>
		<layer id="20" name="model.4.conv.weight" type="Convert" version="opset1">
			<data destination_type="f32" />
			<rt_info>
				<attribute name="decompression" version="0" />
			</rt_info>
			<input>
				<port id="0" precision="FP16">
					<dim>64</dim>
					<dim>32</dim>
					<dim>3</dim>
					<dim>3</dim>
				</port>
			</input>
			<output>
				<port id="1" precision="FP32" names="model.4.conv.weight">
					<dim>64</dim>
					<dim>32</dim>
					<dim>3</dim>
					<dim>3</dim>
				</port>
			</output>
		</layer>
		<layer id="21" name="/model.4/conv/Conv/WithoutBiases" type="Convolution" version="opset1">
			<data strides="1, 1" dilations="1, 1" pads_begin="1, 1" pads_end="1, 1" auto_pad="explicit" />
			<input>
				<port id="0" precision="FP32">
					<dim>1</dim>
					<dim>32</dim>
					<dim>88</dim>
					<dim>88</dim>
				</port>
				<port id="1" precision="FP32">
					<dim>64</dim>
					<dim>32</dim>
					<dim>3</dim>
					<dim>3</dim>
				</port>
			</input>
			<output>
				<port id="2" precision="FP32">
					<dim>1</dim>
					<dim>64</dim>
					<dim>88</dim>
					<dim>88</dim>
				</port>
			</output>
		</layer>
		<layer id="22" name="Reshape_178_compressed" type="Const" version="opset1">
			<data element_type="f16" shape="1, 64, 1, 1" offset="49460" size="128" />
			<output>
				<port id="0" precision="FP16">
					<dim>1</dim>
					<dim>64</dim>
					<dim>1</dim>
					<dim>1</dim>
				</port>
			</output>
		</layer>
		<layer id="23" name="Reshape_178" type="Convert" version="opset1">
			<data destination_type="f32" />
			<rt_info>
				<attribute name="decompression" version="0" />
			</rt_info>
			<input>
				<port id="0" precision="FP16">
					<dim>1</dim>
					<dim>64</dim>
					<dim>1</dim>
					<dim>1</dim>
				</port>
			</input>
			<output>
				<port id="1" precision="FP32">
					<dim>1</dim>
					<dim>64</dim>
					<dim>1</dim>
					<dim>1</dim>
				</port>
			</output>
		</layer>
		<layer id="24" name="/model.4/conv/Conv" type="Add" version="opset1">
			<data auto_broadcast="numpy" />
			<input>
				<port id="0" precision="FP32">
					<dim>1</dim>
					<dim>64</dim>
					<dim>88</dim>
					<dim>88</dim>
				</port>
				<port id="1" precision="FP32">
					<dim>1</dim>
					<dim>64</dim>
					<dim>1</dim>
					<dim>1</dim>
				</port>
			</input>
			<output>
				<port id="2" precision="FP32" names="/model.4/conv/Conv_output_0">
					<dim>1</dim>
					<dim>64</dim>
					<dim>88</dim>
					<dim>88</dim>
				</port>
			</output>
		</layer>
		<layer id="25" name="/model.4/act/Mul" type="Swish" version="opset4">
			<input>
				<port id="0" precision="FP32">
					<dim>1</dim>
					<dim>64</dim>
					<dim>88</dim>
					<dim>88</dim>
				</port>
			</input>
			<output>
				<port id="1" precision="FP32" names="/model.4/act/Mul_output_0">
					<dim>1</dim>
					<dim>64</dim>
					<dim>88</dim>
					<dim>88</dim>
				</port>
			</output>
		</layer>
		<layer id="26" name="/model.5/MaxPool" type="MaxPool" version="opset8">
			<data strides="2, 2" dilations="1, 1" pads_begin="0, 0" pads_end="0, 0" kernel="2, 2" rounding_type="floor" auto_pad="explicit" index_element_type="i64" axis="0" />
			<input>
				<port id="0" precision="FP32">
					<dim>1</dim>
					<dim>64</dim>
					<dim>88</dim>
					<dim>88</dim>
				</port>
			</input>
			<output>
				<port id="1" precision="FP32" names="/model.5/MaxPool_output_0">
					<dim>1</dim>
					<dim>64</dim>
					<dim>44</dim>
					<dim>44</dim>
				</port>
				<port id="2" precision="I64">
					<dim>1</dim>
					<dim>64</dim>
					<dim>44</dim>
					<dim>44</dim>
				</port>
			</output>
		</layer>
		<layer id="27" name="model.6.conv.weight_compressed" type="Const" version="opset1">
			<data element_type="f16" shape="128, 64, 3, 3" offset="49588" size="147456" />
			<output>
				<port id="0" precision="FP16">
					<dim>128</dim>
					<dim>64</dim>
					<dim>3</dim>
					<dim>3</dim>
				</port>
			</output>
		</layer>
		<layer id="28" name="model.6.conv.weight" type="Convert" version="opset1">
			<data destination_type="f32" />
			<rt_info>
				<attribute name="decompression" version="0" />
			</rt_info>
			<input>
				<port id="0" precision="FP16">
					<dim>128</dim>
					<dim>64</dim>
					<dim>3</dim>
					<dim>3</dim>
				</port>
			</input>
			<output>
				<port id="1" precision="FP32" names="model.6.conv.weight">
					<dim>128</dim>
					<dim>64</dim>
					<dim>3</dim>
					<dim>3</dim>
				</port>
			</output>
		</layer>
		<layer id="29" name="/model.6/conv/Conv/WithoutBiases" type="Convolution" version="opset1">
			<data strides="1, 1" dilations="1, 1" pads_begin="1, 1" pads_end="1, 1" auto_pad="explicit" />
			<input>
				<port id="0" precision="FP32">
					<dim>1</dim>
					<dim>64</dim>
					<dim>44</dim>
					<dim>44</dim>
				</port>
				<port id="1" precision="FP32">
					<dim>128</dim>
					<dim>64</dim>
					<dim>3</dim>
					<dim>3</dim>
				</port>
			</input>
			<output>
				<port id="2" precision="FP32">
					<dim>1</dim>
					<dim>128</dim>
					<dim>44</dim>
					<dim>44</dim>
				</port>
			</output>
		</layer>
		<layer id="30" name="Reshape_229_compressed" type="Const" version="opset1">
			<data element_type="f16" shape="1, 128, 1, 1" offset="197044" size="256" />
			<output>
				<port id="0" precision="FP16">
					<dim>1</dim>
					<dim>128</dim>
					<dim>1</dim>
					<dim>1</dim>
				</port>
			</output>
		</layer>
		<layer id="31" name="Reshape_229" type="Convert" version="opset1">
			<data destination_type="f32" />
			<rt_info>
				<attribute name="decompression" version="0" />
			</rt_info>
			<input>
				<port id="0" precision="FP16">
					<dim>1</dim>
					<dim>128</dim>
					<dim>1</dim>
					<dim>1</dim>
				</port>
			</input>
			<output>
				<port id="1" precision="FP32">
					<dim>1</dim>
					<dim>128</dim>
					<dim>1</dim>
					<dim>1</dim>
				</port>
			</output>
		</layer>
		<layer id="32" name="/model.6/conv/Conv" type="Add" version="opset1">
			<data auto_broadcast="numpy" />
			<input>
				<port id="0" precision="FP32">
					<dim>1</dim>
					<dim>128</dim>
					<dim>44</dim>
					<dim>44</dim>
				</port>
				<port id="1" precision="FP32">
					<dim>1</dim>
					<dim>128</dim>
					<dim>1</dim>
					<dim>1</dim>
				</port>
			</input>
			<output>
				<port id="2" precision="FP32" names="/model.6/conv/Conv_output_0">
					<dim>1</dim>
					<dim>128</dim>
					<dim>44</dim>
					<dim>44</dim>
				</port>
			</output>
		</layer>
		<layer id="33" name="/model.6/act/Mul" type="Swish" version="opset4">
			<input>
				<port id="0" precision="FP32">
					<dim>1</dim>
					<dim>128</dim>
					<dim>44</dim>
					<dim>44</dim>
				</port>
			</input>
			<output>
				<port id="1" precision="FP32" names="/model.6/act/Mul_output_0">
					<dim>1</dim>
					<dim>128</dim>
					<dim>44</dim>
					<dim>44</dim>
				</port>
			</output>
		</layer>
		<layer id="34" name="/model.7/MaxPool" type="MaxPool" version="opset8">
			<data strides="2, 2" dilations="1, 1" pads_begin="0, 0" pads_end="0, 0" kernel="2, 2" rounding_type="floor" auto_pad="explicit" index_element_type="i64" axis="0" />
			<input>
				<port id="0" precision="FP32">
					<dim>1</dim>
					<dim>128</dim>
					<dim>44</dim>
					<dim>44</dim>
				</port>
			</input>
			<output>
				<port id="1" precision="FP32" names="/model.7/MaxPool_output_0">
					<dim>1</dim>
					<dim>128</dim>
					<dim>22</dim>
					<dim>22</dim>
				</port>
				<port id="2" precision="I64">
					<dim>1</dim>
					<dim>128</dim>
					<dim>22</dim>
					<dim>22</dim>
				</port>
			</output>
		</layer>
		<layer id="35" name="model.8.conv.weight_compressed" type="Const" version="opset1">
			<data element_type="f16" shape="256, 128, 3, 3" offset="197300" size="589824" />
			<output>
				<port id="0" precision="FP16">
					<dim>256</dim>
					<dim>128</dim>
					<dim>3</dim>
					<dim>3</dim>
				</port>
			</output>
		</layer>
		<layer id="36" name="model.8.conv.weight" type="Convert" version="opset1">
			<data destination_type="f32" />
			<rt_info>
				<attribute name="decompression" version="0" />
			</rt_info>
			<input>
				<port id="0" precision="FP16">
					<dim>256</dim>
					<dim>128</dim>
					<dim>3</dim>
					<dim>3</dim>
				</port>
			</input>
			<output>
				<port id="1" precision="FP32" names="model.8.conv.weight">
					<dim>256</dim>
					<dim>128</dim>
					<dim>3</dim>
					<dim>3</dim>
				</port>
			</output>
		</layer>
		<layer id="37" name="/model.8/conv/Conv/WithoutBiases" type="Convolution" version="opset1">
			<data strides="1, 1" dilations="1, 1" pads_begin="1, 1" pads_end="1, 1" auto_pad="explicit" />
			<input>
				<port id="0" precision="FP32">
					<dim>1</dim>
					<dim>128</dim>
					<dim>22</dim>
					<dim>22</dim>
				</port>
				<port id="1" precision="FP32">
					<dim>256</dim>
					<dim>128</dim>
					<dim>3</dim>
					<dim>3</dim>
				</port>
			</input>
			<output>
				<port id="2" precision="FP32">
					<dim>1</dim>
					<dim>256</dim>
					<dim>22</dim>
					<dim>22</dim>
				</port>
			</output>
		</layer>
		<layer id="38" name="Reshape_280_compressed" type="Const" version="opset1">
			<data element_type="f16" shape="1, 256, 1, 1" offset="787124" size="512" />
			<output>
				<port id="0" precision="FP16">
					<dim>1</dim>
					<dim>256</dim>
					<dim>1</dim>
					<dim>1</dim>
				</port>
			</output>
		</layer>
		<layer id="39" name="Reshape_280" type="Convert" version="opset1">
			<data destination_type="f32" />
			<rt_info>
				<attribute name="decompression" version="0" />
			</rt_info>
			<input>
				<port id="0" precision="FP16">
					<dim>1</dim>
					<dim>256</dim>
					<dim>1</dim>
					<dim>1</dim>
				</port>
			</input>
			<output>
				<port id="1" precision="FP32">
					<dim>1</dim>
					<dim>256</dim>
					<dim>1</dim>
					<dim>1</dim>
				</port>
			</output>
		</layer>
		<layer id="40" name="/model.8/conv/Conv" type="Add" version="opset1">
			<data auto_broadcast="numpy" />
			<input>
				<port id="0" precision="FP32">
					<dim>1</dim>
					<dim>256</dim>
					<dim>22</dim>
					<dim>22</dim>
				</port>
				<port id="1" precision="FP32">
					<dim>1</dim>
					<dim>256</dim>
					<dim>1</dim>
					<dim>1</dim>
				</port>
			</input>
			<output>
				<port id="2" precision="FP32" names="/model.8/conv/Conv_output_0">
					<dim>1</dim>
					<dim>256</dim>
					<dim>22</dim>
					<dim>22</dim>
				</port>
			</output>
		</layer>
		<layer id="41" name="/model.8/act/Mul" type="Swish" version="opset4">
			<input>
				<port id="0" precision="FP32">
					<dim>1</dim>
					<dim>256</dim>
					<dim>22</dim>
					<dim>22</dim>
				</port>
			</input>
			<output>
				<port id="1" precision="FP32" names="/model.8/act/Mul_output_0">
					<dim>1</dim>
					<dim>256</dim>
					<dim>22</dim>
					<dim>22</dim>
				</port>
			</output>
		</layer>
		<layer id="42" name="/model.9/MaxPool" type="MaxPool" version="opset8">
			<data strides="2, 2" dilations="1, 1" pads_begin="0, 0" pads_end="0, 0" kernel="2, 2" rounding_type="floor" auto_pad="explicit" index_element_type="i64" axis="0" />
			<input>
				<port id="0" precision="FP32">
					<dim>1</dim>
					<dim>256</dim>
					<dim>22</dim>
					<dim>22</dim>
				</port>
			</input>
			<output>
				<port id="1" precision="FP32" names="/model.9/MaxPool_output_0">
					<dim>1</dim>
					<dim>256</dim>
					<dim>11</dim>
					<dim>11</dim>
				</port>
				<port id="2" precision="I64">
					<dim>1</dim>
					<dim>256</dim>
					<dim>11</dim>
					<dim>11</dim>
				</port>
			</output>
		</layer>
		<layer id="43" name="model.10.conv.weight_compressed" type="Const" version="opset1">
			<data element_type="f16" shape="512, 256, 3, 3" offset="787636" size="2359296" />
			<output>
				<port id="0" precision="FP16">
					<dim>512</dim>
					<dim>256</dim>
					<dim>3</dim>
					<dim>3</dim>
				</port>
			</output>
		</layer>
		<layer id="44" name="model.10.conv.weight" type="Convert" version="opset1">
			<data destination_type="f32" />
			<rt_info>
				<attribute name="decompression" version="0" />
			</rt_info>
			<input>
				<port id="0" precision="FP16">
					<dim>512</dim>
					<dim>256</dim>
					<dim>3</dim>
					<dim>3</dim>
				</port>
			</input>
			<output>
				<port id="1" precision="FP32" names="model.10.conv.weight">
					<dim>512</dim>
					<dim>256</dim>
					<dim>3</dim>
					<dim>3</dim>
				</port>
			</output>
		</layer>
		<layer id="45" name="/model.10/conv/Conv/WithoutBiases" type="Convolution" version="opset1">
			<data strides="1, 1" dilations="1, 1" pads_begin="1, 1" pads_end="1, 1" auto_pad="explicit" />
			<input>
				<port id="0" precision="FP32">
					<dim>1</dim>
					<dim>256</dim>
					<dim>11</dim>
					<dim>11</dim>
				</port>
				<port id="1" precision="FP32">
					<dim>512</dim>
					<dim>256</dim>
					<dim>3</dim>
					<dim>3</dim>
				</port>
			</input>
			<output>
				<port id="2" precision="FP32">
					<dim>1</dim>
					<dim>512</dim>
					<dim>11</dim>
					<dim>11</dim>
				</port>
			</output>
		</layer>
		<layer id="46" name="Reshape_331_compressed" type="Const" version="opset1">
			<data element_type="f16" shape="1, 512, 1, 1" offset="3146932" size="1024" />
			<output>
				<port id="0" precision="FP16">
					<dim>1</dim>
					<dim>512</dim>
					<dim>1</dim>
					<dim>1</dim>
				</port>
			</output>
		</layer>
		<layer id="47" name="Reshape_331" type="Convert" version="opset1">
			<data destination_type="f32" />
			<rt_info>
				<attribute name="decompression" version="0" />
			</rt_info>
			<input>
				<port id="0" precision="FP16">
					<dim>1</dim>
					<dim>512</dim>
					<dim>1</dim>
					<dim>1</dim>
				</port>
			</input>
			<output>
				<port id="1" precision="FP32">
					<dim>1</dim>
					<dim>512</dim>
					<dim>1</dim>
					<dim>1</dim>
				</port>
			</output>
		</layer>
		<layer id="48" name="/model.10/conv/Conv" type="Add" version="opset1">
			<data auto_broadcast="numpy" />
			<input>
				<port id="0" precision="FP32">
					<dim>1</dim>
					<dim>512</dim>
					<dim>11</dim>
					<dim>11</dim>
				</port>
				<port id="1" precision="FP32">
					<dim>1</dim>
					<dim>512</dim>
					<dim>1</dim>
					<dim>1</dim>
				</port>
			</input>
			<output>
				<port id="2" precision="FP32" names="/model.10/conv/Conv_output_0">
					<dim>1</dim>
					<dim>512</dim>
					<dim>11</dim>
					<dim>11</dim>
				</port>
			</output>
		</layer>
		<layer id="49" name="/model.10/act/Mul" type="Swish" version="opset4">
			<input>
				<port id="0" precision="FP32">
					<dim>1</dim>
					<dim>512</dim>
					<dim>11</dim>
					<dim>11</dim>
				</port>
			</input>
			<output>
				<port id="1" precision="FP32" names="/model.10/act/Mul_output_0">
					<dim>1</dim>
					<dim>512</dim>
					<dim>11</dim>
					<dim>11</dim>
				</port>
			</output>
		</layer>
		<layer id="50" name="Constant_363" type="Const" version="opset1">
			<data element_type="i64" shape="4" offset="3147956" size="32" />
			<output>
				<port id="0" precision="I64">
					<dim>4</dim>
				</port>
			</output>
		</layer>
		<layer id="51" name="Constant_362" type="Const" version="opset1">
			<data element_type="i64" shape="4" offset="3147988" size="32" />
			<output>
				<port id="0" precision="I64">
					<dim>4</dim>
				</port>
			</output>
		</layer>
		<layer id="52" name="Constant_361_compressed" type="Const" version="opset1">
			<data element_type="f16" shape="" offset="3148020" size="2" />
			<output>
				<port id="0" precision="FP16" />
			</output>
		</layer>
		<layer id="53" name="Constant_361" type="Convert" version="opset1">
			<data destination_type="f32" />
			<rt_info>
				<attribute name="decompression" version="0" />
			</rt_info>
			<input>
				<port id="0" precision="FP16" />
			</input>
			<output>
				<port id="1" precision="FP32" />
			</output>
		</layer>
		<layer id="54" name="/model.11/Pad" type="Pad" version="opset1">
			<data pad_mode="constant" />
			<input>
				<port id="0" precision="FP32">
					<dim>1</dim>
					<dim>512</dim>
					<dim>11</dim>
					<dim>11</dim>
				</port>
				<port id="1" precision="I64">
					<dim>4</dim>
				</port>
				<port id="2" precision="I64">
					<dim>4</dim>
				</port>
				<port id="3" precision="FP32" />
			</input>
			<output>
				<port id="4" precision="FP32" names="/model.11/Pad_output_0">
					<dim>1</dim>
					<dim>512</dim>
					<dim>12</dim>
					<dim>12</dim>
				</port>
			</output>
		</layer>
		<layer id="55" name="/model.12/MaxPool" type="MaxPool" version="opset8">
			<data strides="1, 1" dilations="1, 1" pads_begin="0, 0" pads_end="0, 0" kernel="2, 2" rounding_type="floor" auto_pad="explicit" index_element_type="i64" axis="0" />
			<input>
				<port id="0" precision="FP32">
					<dim>1</dim>
					<dim>512</dim>
					<dim>12</dim>
					<dim>12</dim>
				</port>
			</input>
			<output>
				<port id="1" precision="FP32" names="/model.12/MaxPool_output_0">
					<dim>1</dim>
					<dim>512</dim>
					<dim>11</dim>
					<dim>11</dim>
				</port>
				<port id="2" precision="I64">
					<dim>1</dim>
					<dim>512</dim>
					<dim>11</dim>
					<dim>11</dim>
				</port>
			</output>
		</layer>
		<layer id="56" name="model.13.conv.weight_compressed" type="Const" version="opset1">
			<data element_type="f16" shape="1024, 512, 3, 3" offset="3148022" size="9437184" />
			<output>
				<port id="0" precision="FP16">
					<dim>1024</dim>
					<dim>512</dim>
					<dim>3</dim>
					<dim>3</dim>
				</port>
			</output>
		</layer>
		<layer id="57" name="model.13.conv.weight" type="Convert" version="opset1">
			<data destination_type="f32" />
			<rt_info>
				<attribute name="decompression" version="0" />
			</rt_info>
			<input>
				<port id="0" precision="FP16">
					<dim>1024</dim>
					<dim>512</dim>
					<dim>3</dim>
					<dim>3</dim>
				</port>
			</input>
			<output>
				<port id="1" precision="FP32" names="model.13.conv.weight">
					<dim>1024</dim>
					<dim>512</dim>
					<dim>3</dim>
					<dim>3</dim>
				</port>
			</output>
		</layer>
		<layer id="58" name="/model.13/conv/Conv/WithoutBiases" type="Convolution" version="opset1">
			<data strides="1, 1" dilations="1, 1" pads_begin="1, 1" pads_end="1, 1" auto_pad="explicit" />
			<input>
				<port id="0" precision="FP32">
					<dim>1</dim>
					<dim>512</dim>
					<dim>11</dim>
					<dim>11</dim>
				</port>
				<port id="1" precision="FP32">
					<dim>1024</dim>
					<dim>512</dim>
					<dim>3</dim>
					<dim>3</dim>
				</port>
			</input>
			<output>
				<port id="2" precision="FP32">
					<dim>1</dim>
					<dim>1024</dim>
					<dim>11</dim>
					<dim>11</dim>
				</port>
			</output>
		</layer>
		<layer id="59" name="Reshape_386_compressed" type="Const" version="opset1">
			<data element_type="f16" shape="1, 1024, 1, 1" offset="12585206" size="2048" />
			<output>
				<port id="0" precision="FP16">
					<dim>1</dim>
					<dim>1024</dim>
					<dim>1</dim>
					<dim>1</dim>
				</port>
			</output>
		</layer>
		<layer id="60" name="Reshape_386" type="Convert" version="opset1">
			<data destination_type="f32" />
			<rt_info>
				<attribute name="decompression" version="0" />
			</rt_info>
			<input>
				<port id="0" precision="FP16">
					<dim>1</dim>
					<dim>1024</dim>
					<dim>1</dim>
					<dim>1</dim>
				</port>
			</input>
			<output>
				<port id="1" precision="FP32">
					<dim>1</dim>
					<dim>1024</dim>
					<dim>1</dim>
					<dim>1</dim>
				</port>
			</output>
		</layer>
		<layer id="61" name="/model.13/conv/Conv" type="Add" version="opset1">
			<data auto_broadcast="numpy" />
			<input>
				<port id="0" precision="FP32">
					<dim>1</dim>
					<dim>1024</dim>
					<dim>11</dim>
					<dim>11</dim>
				</port>
				<port id="1" precision="FP32">
					<dim>1</dim>
					<dim>1024</dim>
					<dim>1</dim>
					<dim>1</dim>
				</port>
			</input>
			<output>
				<port id="2" precision="FP32" names="/model.13/conv/Conv_output_0">
					<dim>1</dim>
					<dim>1024</dim>
					<dim>11</dim>
					<dim>11</dim>
				</port>
			</output>
		</layer>
		<layer id="62" name="/model.13/act/Mul" type="Swish" version="opset4">
			<input>
				<port id="0" precision="FP32">
					<dim>1</dim>
					<dim>1024</dim>
					<dim>11</dim>
					<dim>11</dim>
				</port>
			</input>
			<output>
				<port id="1" precision="FP32" names="/model.13/act/Mul_output_0">
					<dim>1</dim>
					<dim>1024</dim>
					<dim>11</dim>
					<dim>11</dim>
				</port>
			</output>
		</layer>
		<layer id="63" name="model.14.conv.weight_compressed" type="Const" version="opset1">
			<data element_type="f16" shape="256, 1024, 1, 1" offset="12587254" size="524288" />
			<output>
				<port id="0" precision="FP16">
					<dim>256</dim>
					<dim>1024</dim>
					<dim>1</dim>
					<dim>1</dim>
				</port>
			</output>
		</layer>
		<layer id="64" name="model.14.conv.weight" type="Convert" version="opset1">
			<data destination_type="f32" />
			<rt_info>
				<attribute name="decompression" version="0" />
			</rt_info>
			<input>
				<port id="0" precision="FP16">
					<dim>256</dim>
					<dim>1024</dim>
					<dim>1</dim>
					<dim>1</dim>
				</port>
			</input>
			<output>
				<port id="1" precision="FP32" names="model.14.conv.weight">
					<dim>256</dim>
					<dim>1024</dim>
					<dim>1</dim>
					<dim>1</dim>
				</port>
			</output>
		</layer>
		<layer id="65" name="/model.14/conv/Conv/WithoutBiases" type="Convolution" version="opset1">
			<data strides="1, 1" dilations="1, 1" pads_begin="0, 0" pads_end="0, 0" auto_pad="explicit" />
			<input>
				<port id="0" precision="FP32">
					<dim>1</dim>
					<dim>1024</dim>
					<dim>11</dim>
					<dim>11</dim>
				</port>
				<port id="1" precision="FP32">
					<dim>256</dim>
					<dim>1024</dim>
					<dim>1</dim>
					<dim>1</dim>
				</port>
			</input>
			<output>
				<port id="2" precision="FP32">
					<dim>1</dim>
					<dim>256</dim>
					<dim>11</dim>
					<dim>11</dim>
				</port>
			</output>
		</layer>
		<layer id="66" name="Reshape_436_compressed" type="Const" version="opset1">
			<data element_type="f16" shape="1, 256, 1, 1" offset="13111542" size="512" />
			<output>
				<port id="0" precision="FP16">
					<dim>1</dim>
					<dim>256</dim>
					<dim>1</dim>
					<dim>1</dim>
				</port>
			</output>
		</layer>
		<layer id="67" name="Reshape_436" type="Convert" version="opset1">
			<data destination_type="f32" />
			<rt_info>
				<attribute name="decompression" version="0" />
			</rt_info>
			<input>
				<port id="0" precision="FP16">
					<dim>1</dim>
					<dim>256</dim>
					<dim>1</dim>
					<dim>1</dim>
				</port>
			</input>
			<output>
				<port id="1" precision="FP32">
					<dim>1</dim>
					<dim>256</dim>
					<dim>1</dim>
					<dim>1</dim>
				</port>
			</output>
		</layer>
		<layer id="68" name="/model.14/conv/Conv" type="Add" version="opset1">
			<data auto_broadcast="numpy" />
			<input>
				<port id="0" precision="FP32">
					<dim>1</dim>
					<dim>256</dim>
					<dim>11</dim>
					<dim>11</dim>
				</port>
				<port id="1" precision="FP32">
					<dim>1</dim>
					<dim>256</dim>
					<dim>1</dim>
					<dim>1</dim>
				</port>
			</input>
			<output>
				<port id="2" precision="FP32" names="/model.14/conv/Conv_output_0">
					<dim>1</dim>
					<dim>256</dim>
					<dim>11</dim>
					<dim>11</dim>
				</port>
			</output>
		</layer>
		<layer id="69" name="/model.14/act/Mul" type="Swish" version="opset4">
			<input>
				<port id="0" precision="FP32">
					<dim>1</dim>
					<dim>256</dim>
					<dim>11</dim>
					<dim>11</dim>
				</port>
			</input>
			<output>
				<port id="1" precision="FP32" names="/model.14/act/Mul_output_0">
					<dim>1</dim>
					<dim>256</dim>
					<dim>11</dim>
					<dim>11</dim>
				</port>
			</output>
		</layer>
		<layer id="70" name="model.16.conv.weight_compressed" type="Const" version="opset1">
			<data element_type="f16" shape="128, 256, 1, 1" offset="13112054" size="65536" />
			<output>
				<port id="0" precision="FP16">
					<dim>128</dim>
					<dim>256</dim>
					<dim>1</dim>
					<dim>1</dim>
				</port>
			</output>
		</layer>
		<layer id="71" name="model.16.conv.weight" type="Convert" version="opset1">
			<data destination_type="f32" />
			<rt_info>
				<attribute name="decompression" version="0" />
			</rt_info>
			<input>
				<port id="0" precision="FP16">
					<dim>128</dim>
					<dim>256</dim>
					<dim>1</dim>
					<dim>1</dim>
				</port>
			</input>
			<output>
				<port id="1" precision="FP32" names="model.16.conv.weight">
					<dim>128</dim>
					<dim>256</dim>
					<dim>1</dim>
					<dim>1</dim>
				</port>
			</output>
		</layer>
		<layer id="72" name="/model.16/conv/Conv/WithoutBiases" type="Convolution" version="opset1">
			<data strides="1, 1" dilations="1, 1" pads_begin="0, 0" pads_end="0, 0" auto_pad="explicit" />
			<input>
				<port id="0" precision="FP32">
					<dim>1</dim>
					<dim>256</dim>
					<dim>11</dim>
					<dim>11</dim>
				</port>
				<port id="1" precision="FP32">
					<dim>128</dim>
					<dim>256</dim>
					<dim>1</dim>
					<dim>1</dim>
				</port>
			</input>
			<output>
				<port id="2" precision="FP32">
					<dim>1</dim>
					<dim>128</dim>
					<dim>11</dim>
					<dim>11</dim>
				</port>
			</output>
		</layer>
		<layer id="73" name="Reshape_534_compressed" type="Const" version="opset1">
			<data element_type="f16" shape="1, 128, 1, 1" offset="13177590" size="256" />
			<output>
				<port id="0" precision="FP16">
					<dim>1</dim>
					<dim>128</dim>
					<dim>1</dim>
					<dim>1</dim>
				</port>
			</output>
		</layer>
		<layer id="74" name="Reshape_534" type="Convert" version="opset1">
			<data destination_type="f32" />
			<rt_info>
				<attribute name="decompression" version="0" />
			</rt_info>
			<input>
				<port id="0" precision="FP16">
					<dim>1</dim>
					<dim>128</dim>
					<dim>1</dim>
					<dim>1</dim>
				</port>
			</input>
			<output>
				<port id="1" precision="FP32">
					<dim>1</dim>
					<dim>128</dim>
					<dim>1</dim>
					<dim>1</dim>
				</port>
			</output>
		</layer>
		<layer id="75" name="/model.16/conv/Conv" type="Add" version="opset1">
			<data auto_broadcast="numpy" />
			<input>
				<port id="0" precision="FP32">
					<dim>1</dim>
					<dim>128</dim>
					<dim>11</dim>
					<dim>11</dim>
				</port>
				<port id="1" precision="FP32">
					<dim>1</dim>
					<dim>128</dim>
					<dim>1</dim>
					<dim>1</dim>
				</port>
			</input>
			<output>
				<port id="2" precision="FP32" names="/model.16/conv/Conv_output_0">
					<dim>1</dim>
					<dim>128</dim>
					<dim>11</dim>
					<dim>11</dim>
				</port>
			</output>
		</layer>
		<layer id="76" name="/model.16/act/Mul" type="Swish" version="opset4">
			<input>
				<port id="0" precision="FP32">
					<dim>1</dim>
					<dim>128</dim>
					<dim>11</dim>
					<dim>11</dim>
				</port>
			</input>
			<output>
				<port id="1" precision="FP32" names="/model.16/act/Mul_output_0">
					<dim>1</dim>
					<dim>128</dim>
					<dim>11</dim>
					<dim>11</dim>
				</port>
			</output>
		</layer>
		<layer id="77" name="ShapeOf_566" type="ShapeOf" version="opset3">
			<data output_type="i64" />
			<input>
				<port id="0" precision="FP32">
					<dim>1</dim>
					<dim>128</dim>
					<dim>11</dim>
					<dim>11</dim>
				</port>
			</input>
			<output>
				<port id="1" precision="I64">
					<dim>4</dim>
				</port>
			</output>
		</layer>
		<layer id="78" name="Convert_567" type="Convert" version="opset1">
			<data destination_type="f32" />
			<input>
				<port id="0" precision="I64">
					<dim>4</dim>
				</port>
			</input>
			<output>
				<port id="1" precision="FP32">
					<dim>4</dim>
				</port>
			</output>
		</layer>
		<layer id="79" name="/model.17/Constant_output_0" type="Const" version="opset1">
			<data element_type="f32" shape="4" offset="13177846" size="16" />
			<output>
				<port id="0" precision="FP32" names="/model.17/Constant_output_0">
					<dim>4</dim>
				</port>
			</output>
		</layer>
		<layer id="80" name="Multiply_568" type="Multiply" version="opset1">
			<data auto_broadcast="numpy" />
			<input>
				<port id="0" precision="FP32">
					<dim>4</dim>
				</port>
				<port id="1" precision="FP32">
					<dim>4</dim>
				</port>
			</input>
			<output>
				<port id="2" precision="FP32">
					<dim>4</dim>
				</port>
			</output>
		</layer>
		<layer id="81" name="Floor_569" type="Floor" version="opset1">
			<input>
				<port id="0" precision="FP32">
					<dim>4</dim>
				</port>
			</input>
			<output>
				<port id="1" precision="FP32">
					<dim>4</dim>
				</port>
			</output>
		</layer>
		<layer id="82" name="Convert_570" type="Convert" version="opset1">
			<data destination_type="i64" />
			<input>
				<port id="0" precision="FP32">
					<dim>4</dim>
				</port>
			</input>
			<output>
				<port id="1" precision="I64">
					<dim>4</dim>
				</port>
			</output>
		</layer>
		<layer id="83" name="/model.17/Upsample" type="Interpolate" version="opset4">
			<data mode="nearest" shape_calculation_mode="scales" coordinate_transformation_mode="half_pixel" nearest_mode="round_prefer_floor" antialias="false" pads_begin="0, 0, 0, 0" pads_end="0, 0, 0, 0" cube_coeff="-0.75" />
			<input>
				<port id="0" precision="FP32">
					<dim>1</dim>
					<dim>128</dim>
					<dim>11</dim>
					<dim>11</dim>
				</port>
				<port id="1" precision="I64">
					<dim>4</dim>
				</port>
				<port id="2" precision="FP32">
					<dim>4</dim>
				</port>
			</input>
			<output>
				<port id="3" precision="FP32" names="/model.17/Upsample_output_0">
					<dim>1</dim>
					<dim>128</dim>
					<dim>22</dim>
					<dim>22</dim>
				</port>
			</output>
		</layer>
		<layer id="84" name="/model.18/Concat" type="Concat" version="opset1">
			<data axis="1" />
			<input>
				<port id="0" precision="FP32">
					<dim>1</dim>
					<dim>128</dim>
					<dim>22</dim>
					<dim>22</dim>
				</port>
				<port id="1" precision="FP32">
					<dim>1</dim>
					<dim>256</dim>
					<dim>22</dim>
					<dim>22</dim>
				</port>
			</input>
			<output>
				<port id="2" precision="FP32" names="/model.18/Concat_output_0">
					<dim>1</dim>
					<dim>384</dim>
					<dim>22</dim>
					<dim>22</dim>
				</port>
			</output>
		</layer>
		<layer id="85" name="model.19.conv.weight_compressed" type="Const" version="opset1">
			<data element_type="f16" shape="256, 384, 3, 3" offset="13177862" size="1769472" />
			<output>
				<port id="0" precision="FP16">
					<dim>256</dim>
					<dim>384</dim>
					<dim>3</dim>
					<dim>3</dim>
				</port>
			</output>
		</layer>
		<layer id="86" name="model.19.conv.weight" type="Convert" version="opset1">
			<data destination_type="f32" />
			<rt_info>
				<attribute name="decompression" version="0" />
			</rt_info>
			<input>
				<port id="0" precision="FP16">
					<dim>256</dim>
					<dim>384</dim>
					<dim>3</dim>
					<dim>3</dim>
				</port>
			</input>
			<output>
				<port id="1" precision="FP32" names="model.19.conv.weight">
					<dim>256</dim>
					<dim>384</dim>
					<dim>3</dim>
					<dim>3</dim>
				</port>
			</output>
		</layer>
		<layer id="87" name="/model.19/conv/Conv/WithoutBiases" type="Convolution" version="opset1">
			<data strides="1, 1" dilations="1, 1" pads_begin="1, 1" pads_end="1, 1" auto_pad="explicit" />
			<input>
				<port id="0" precision="FP32">
					<dim>1</dim>
					<dim>384</dim>
					<dim>22</dim>
					<dim>22</dim>
				</port>
				<port id="1" precision="FP32">
					<dim>256</dim>
					<dim>384</dim>
					<dim>3</dim>
					<dim>3</dim>
				</port>
			</input>
			<output>
				<port id="2" precision="FP32">
					<dim>1</dim>
					<dim>256</dim>
					<dim>22</dim>
					<dim>22</dim>
				</port>
			</output>
		</layer>
		<layer id="88" name="Reshape_691_compressed" type="Const" version="opset1">
			<data element_type="f16" shape="1, 256, 1, 1" offset="14947334" size="512" />
			<output>
				<port id="0" precision="FP16">
					<dim>1</dim>
					<dim>256</dim>
					<dim>1</dim>
					<dim>1</dim>
				</port>
			</output>
		</layer>
		<layer id="89" name="Reshape_691" type="Convert" version="opset1">
			<data destination_type="f32" />
			<rt_info>
				<attribute name="decompression" version="0" />
			</rt_info>
			<input>
				<port id="0" precision="FP16">
					<dim>1</dim>
					<dim>256</dim>
					<dim>1</dim>
					<dim>1</dim>
				</port>
			</input>
			<output>
				<port id="1" precision="FP32">
					<dim>1</dim>
					<dim>256</dim>
					<dim>1</dim>
					<dim>1</dim>
				</port>
			</output>
		</layer>
		<layer id="90" name="/model.19/conv/Conv" type="Add" version="opset1">
			<data auto_broadcast="numpy" />
			<input>
				<port id="0" precision="FP32">
					<dim>1</dim>
					<dim>256</dim>
					<dim>22</dim>
					<dim>22</dim>
				</port>
				<port id="1" precision="FP32">
					<dim>1</dim>
					<dim>256</dim>
					<dim>1</dim>
					<dim>1</dim>
				</port>
			</input>
			<output>
				<port id="2" precision="FP32" names="/model.19/conv/Conv_output_0">
					<dim>1</dim>
					<dim>256</dim>
					<dim>22</dim>
					<dim>22</dim>
				</port>
			</output>
		</layer>
		<layer id="91" name="/model.19/act/Mul" type="Swish" version="opset4">
			<input>
				<port id="0" precision="FP32">
					<dim>1</dim>
					<dim>256</dim>
					<dim>22</dim>
					<dim>22</dim>
				</port>
			</input>
			<output>
				<port id="1" precision="FP32" names="/model.19/act/Mul_output_0">
					<dim>1</dim>
					<dim>256</dim>
					<dim>22</dim>
					<dim>22</dim>
				</port>
			</output>
		</layer>
		<layer id="92" name="model.20.cv2.0.0.conv.weight_compressed" type="Const" version="opset1">
			<data element_type="f16" shape="64, 256, 3, 3" offset="14947846" size="294912" />
			<output>
				<port id="0" precision="FP16">
					<dim>64</dim>
					<dim>256</dim>
					<dim>3</dim>
					<dim>3</dim>
				</port>
			</output>
		</layer>
		<layer id="93" name="model.20.cv2.0.0.conv.weight" type="Convert" version="opset1">
			<data destination_type="f32" />
			<rt_info>
				<attribute name="decompression" version="0" />
			</rt_info>
			<input>
				<port id="0" precision="FP16">
					<dim>64</dim>
					<dim>256</dim>
					<dim>3</dim>
					<dim>3</dim>
				</port>
			</input>
			<output>
				<port id="1" precision="FP32" names="model.20.cv2.0.0.conv.weight">
					<dim>64</dim>
					<dim>256</dim>
					<dim>3</dim>
					<dim>3</dim>
				</port>
			</output>
		</layer>
		<layer id="94" name="/model.20/cv2.0/cv2.0.0/conv/Conv/WithoutBiases" type="Convolution" version="opset1">
			<data strides="1, 1" dilations="1, 1" pads_begin="1, 1" pads_end="1, 1" auto_pad="explicit" />
			<input>
				<port id="0" precision="FP32">
					<dim>1</dim>
					<dim>256</dim>
					<dim>22</dim>
					<dim>22</dim>
				</port>
				<port id="1" precision="FP32">
					<dim>64</dim>
					<dim>256</dim>
					<dim>3</dim>
					<dim>3</dim>
				</port>
			</input>
			<output>
				<port id="2" precision="FP32">
					<dim>1</dim>
					<dim>64</dim>
					<dim>22</dim>
					<dim>22</dim>
				</port>
			</output>
		</layer>
		<layer id="95" name="Reshape_841_compressed" type="Const" version="opset1">
			<data element_type="f16" shape="1, 64, 1, 1" offset="15242758" size="128" />
			<output>
				<port id="0" precision="FP16">
					<dim>1</dim>
					<dim>64</dim>
					<dim>1</dim>
					<dim>1</dim>
				</port>
			</output>
		</layer>
		<layer id="96" name="Reshape_841" type="Convert" version="opset1">
			<data destination_type="f32" />
			<rt_info>
				<attribute name="decompression" version="0" />
			</rt_info>
			<input>
				<port id="0" precision="FP16">
					<dim>1</dim>
					<dim>64</dim>
					<dim>1</dim>
					<dim>1</dim>
				</port>
			</input>
			<output>
				<port id="1" precision="FP32">
					<dim>1</dim>
					<dim>64</dim>
					<dim>1</dim>
					<dim>1</dim>
				</port>
			</output>
		</layer>
		<layer id="97" name="/model.20/cv2.0/cv2.0.0/conv/Conv" type="Add" version="opset1">
			<data auto_broadcast="numpy" />
			<input>
				<port id="0" precision="FP32">
					<dim>1</dim>
					<dim>64</dim>
					<dim>22</dim>
					<dim>22</dim>
				</port>
				<port id="1" precision="FP32">
					<dim>1</dim>
					<dim>64</dim>
					<dim>1</dim>
					<dim>1</dim>
				</port>
			</input>
			<output>
				<port id="2" precision="FP32" names="/model.20/cv2.0/cv2.0.0/conv/Conv_output_0">
					<dim>1</dim>
					<dim>64</dim>
					<dim>22</dim>
					<dim>22</dim>
				</port>
			</output>
		</layer>
		<layer id="98" name="/model.20/cv2.0/cv2.0.0/act/Mul" type="Swish" version="opset4">
			<input>
				<port id="0" precision="FP32">
					<dim>1</dim>
					<dim>64</dim>
					<dim>22</dim>
					<dim>22</dim>
				</port>
			</input>
			<output>
				<port id="1" precision="FP32" names="/model.20/cv2.0/cv2.0.0/act/Mul_output_0">
					<dim>1</dim>
					<dim>64</dim>
					<dim>22</dim>
					<dim>22</dim>
				</port>
			</output>
		</layer>
		<layer id="99" name="model.20.cv2.0.1.conv.weight_compressed" type="Const" version="opset1">
			<data element_type="f16" shape="64, 64, 3, 3" offset="15242886" size="73728" />
			<output>
				<port id="0" precision="FP16">
					<dim>64</dim>
					<dim>64</dim>
					<dim>3</dim>
					<dim>3</dim>
				</port>
			</output>
		</layer>
		<layer id="100" name="model.20.cv2.0.1.conv.weight" type="Convert" version="opset1">
			<data destination_type="f32" />
			<rt_info>
				<attribute name="decompression" version="0" />
			</rt_info>
			<input>
				<port id="0" precision="FP16">
					<dim>64</dim>
					<dim>64</dim>
					<dim>3</dim>
					<dim>3</dim>
				</port>
			</input>
			<output>
				<port id="1" precision="FP32" names="model.20.cv2.0.1.conv.weight">
					<dim>64</dim>
					<dim>64</dim>
					<dim>3</dim>
					<dim>3</dim>
				</port>
			</output>
		</layer>
		<layer id="101" name="/model.20/cv2.0/cv2.0.1/conv/Conv/WithoutBiases" type="Convolution" version="opset1">
			<data strides="1, 1" dilations="1, 1" pads_begin="1, 1" pads_end="1, 1" auto_pad="explicit" />
			<input>
				<port id="0" precision="FP32">
					<dim>1</dim>
					<dim>64</dim>
					<dim>22</dim>
					<dim>22</dim>
				</port>
				<port id="1" precision="FP32">
					<dim>64</dim>
					<dim>64</dim>
					<dim>3</dim>
					<dim>3</dim>
				</port>
			</input>
			<output>
				<port id="2" precision="FP32">
					<dim>1</dim>
					<dim>64</dim>
					<dim>22</dim>
					<dim>22</dim>
				</port>
			</output>
		</layer>
		<layer id="102" name="Reshape_1040_compressed" type="Const" version="opset1">
			<data element_type="f16" shape="1, 64, 1, 1" offset="15316614" size="128" />
			<output>
				<port id="0" precision="FP16">
					<dim>1</dim>
					<dim>64</dim>
					<dim>1</dim>
					<dim>1</dim>
				</port>
			</output>
		</layer>
		<layer id="103" name="Reshape_1040" type="Convert" version="opset1">
			<data destination_type="f32" />
			<rt_info>
				<attribute name="decompression" version="0" />
			</rt_info>
			<input>
				<port id="0" precision="FP16">
					<dim>1</dim>
					<dim>64</dim>
					<dim>1</dim>
					<dim>1</dim>
				</port>
			</input>
			<output>
				<port id="1" precision="FP32">
					<dim>1</dim>
					<dim>64</dim>
					<dim>1</dim>
					<dim>1</dim>
				</port>
			</output>
		</layer>
		<layer id="104" name="/model.20/cv2.0/cv2.0.1/conv/Conv" type="Add" version="opset1">
			<data auto_broadcast="numpy" />
			<input>
				<port id="0" precision="FP32">
					<dim>1</dim>
					<dim>64</dim>
					<dim>22</dim>
					<dim>22</dim>
				</port>
				<port id="1" precision="FP32">
					<dim>1</dim>
					<dim>64</dim>
					<dim>1</dim>
					<dim>1</dim>
				</port>
			</input>
			<output>
				<port id="2" precision="FP32" names="/model.20/cv2.0/cv2.0.1/conv/Conv_output_0">
					<dim>1</dim>
					<dim>64</dim>
					<dim>22</dim>
					<dim>22</dim>
				</port>
			</output>
		</layer>
		<layer id="105" name="/model.20/cv2.0/cv2.0.1/act/Mul" type="Swish" version="opset4">
			<input>
				<port id="0" precision="FP32">
					<dim>1</dim>
					<dim>64</dim>
					<dim>22</dim>
					<dim>22</dim>
				</port>
			</input>
			<output>
				<port id="1" precision="FP32" names="/model.20/cv2.0/cv2.0.1/act/Mul_output_0">
					<dim>1</dim>
					<dim>64</dim>
					<dim>22</dim>
					<dim>22</dim>
				</port>
			</output>
		</layer>
		<layer id="106" name="model.20.cv2.0.2.weight_compressed" type="Const" version="opset1">
			<data element_type="f16" shape="64, 64, 1, 1" offset="15316742" size="8192" />
			<output>
				<port id="0" precision="FP16">
					<dim>64</dim>
					<dim>64</dim>
					<dim>1</dim>
					<dim>1</dim>
				</port>
			</output>
		</layer>
		<layer id="107" name="model.20.cv2.0.2.weight" type="Convert" version="opset1">
			<data destination_type="f32" />
			<rt_info>
				<attribute name="decompression" version="0" />
			</rt_info>
			<input>
				<port id="0" precision="FP16">
					<dim>64</dim>
					<dim>64</dim>
					<dim>1</dim>
					<dim>1</dim>
				</port>
			</input>
			<output>
				<port id="1" precision="FP32" names="model.20.cv2.0.2.weight">
					<dim>64</dim>
					<dim>64</dim>
					<dim>1</dim>
					<dim>1</dim>
				</port>
			</output>
		</layer>
		<layer id="108" name="/model.20/cv2.0/cv2.0.2/Conv/WithoutBiases" type="Convolution" version="opset1">
			<data strides="1, 1" dilations="1, 1" pads_begin="0, 0" pads_end="0, 0" auto_pad="explicit" />
			<input>
				<port id="0" precision="FP32">
					<dim>1</dim>
					<dim>64</dim>
					<dim>22</dim>
					<dim>22</dim>
				</port>
				<port id="1" precision="FP32">
					<dim>64</dim>
					<dim>64</dim>
					<dim>1</dim>
					<dim>1</dim>
				</port>
			</input>
			<output>
				<port id="2" precision="FP32">
					<dim>1</dim>
					<dim>64</dim>
					<dim>22</dim>
					<dim>22</dim>
				</port>
			</output>
		</layer>
		<layer id="109" name="Reshape_1146_compressed" type="Const" version="opset1">
			<data element_type="f16" shape="1, 64, 1, 1" offset="15324934" size="128" />
			<output>
				<port id="0" precision="FP16">
					<dim>1</dim>
					<dim>64</dim>
					<dim>1</dim>
					<dim>1</dim>
				</port>
			</output>
		</layer>
		<layer id="110" name="Reshape_1146" type="Convert" version="opset1">
			<data destination_type="f32" />
			<rt_info>
				<attribute name="decompression" version="0" />
			</rt_info>
			<input>
				<port id="0" precision="FP16">
					<dim>1</dim>
					<dim>64</dim>
					<dim>1</dim>
					<dim>1</dim>
				</port>
			</input>
			<output>
				<port id="1" precision="FP32">
					<dim>1</dim>
					<dim>64</dim>
					<dim>1</dim>
					<dim>1</dim>
				</port>
			</output>
		</layer>
		<layer id="111" name="/model.20/cv2.0/cv2.0.2/Conv" type="Add" version="opset1">
			<data auto_broadcast="numpy" />
			<input>
				<port id="0" precision="FP32">
					<dim>1</dim>
					<dim>64</dim>
					<dim>22</dim>
					<dim>22</dim>
				</port>
				<port id="1" precision="FP32">
					<dim>1</dim>
					<dim>64</dim>
					<dim>1</dim>
					<dim>1</dim>
				</port>
			</input>
			<output>
				<port id="2" precision="FP32" names="/model.20/cv2.0/cv2.0.2/Conv_output_0">
					<dim>1</dim>
					<dim>64</dim>
					<dim>22</dim>
					<dim>22</dim>
				</port>
			</output>
		</layer>
		<layer id="112" name="model.20.cv3.0.0.conv.weight_compressed" type="Const" version="opset1">
			<data element_type="f16" shape="256, 256, 3, 3" offset="15325062" size="1179648" />
			<output>
				<port id="0" precision="FP16">
					<dim>256</dim>
					<dim>256</dim>
					<dim>3</dim>
					<dim>3</dim>
				</port>
			</output>
		</layer>
		<layer id="113" name="model.20.cv3.0.0.conv.weight" type="Convert" version="opset1">
			<data destination_type="f32" />
			<rt_info>
				<attribute name="decompression" version="0" />
			</rt_info>
			<input>
				<port id="0" precision="FP16">
					<dim>256</dim>
					<dim>256</dim>
					<dim>3</dim>
					<dim>3</dim>
				</port>
			</input>
			<output>
				<port id="1" precision="FP32" names="model.20.cv3.0.0.conv.weight">
					<dim>256</dim>
					<dim>256</dim>
					<dim>3</dim>
					<dim>3</dim>
				</port>
			</output>
		</layer>
		<layer id="114" name="/model.20/cv3.0/cv3.0.0/conv/Conv/WithoutBiases" type="Convolution" version="opset1">
			<data strides="1, 1" dilations="1, 1" pads_begin="1, 1" pads_end="1, 1" auto_pad="explicit" />
			<input>
				<port id="0" precision="FP32">
					<dim>1</dim>
					<dim>256</dim>
					<dim>22</dim>
					<dim>22</dim>
				</port>
				<port id="1" precision="FP32">
					<dim>256</dim>
					<dim>256</dim>
					<dim>3</dim>
					<dim>3</dim>
				</port>
			</input>
			<output>
				<port id="2" precision="FP32">
					<dim>1</dim>
					<dim>256</dim>
					<dim>22</dim>
					<dim>22</dim>
				</port>
			</output>
		</layer>
		<layer id="115" name="Reshape_889_compressed" type="Const" version="opset1">
			<data element_type="f16" shape="1, 256, 1, 1" offset="16504710" size="512" />
			<output>
				<port id="0" precision="FP16">
					<dim>1</dim>
					<dim>256</dim>
					<dim>1</dim>
					<dim>1</dim>
				</port>
			</output>
		</layer>
		<layer id="116" name="Reshape_889" type="Convert" version="opset1">
			<data destination_type="f32" />
			<rt_info>
				<attribute name="decompression" version="0" />
			</rt_info>
			<input>
				<port id="0" precision="FP16">
					<dim>1</dim>
					<dim>256</dim>
					<dim>1</dim>
					<dim>1</dim>
				</port>
			</input>
			<output>
				<port id="1" precision="FP32">
					<dim>1</dim>
					<dim>256</dim>
					<dim>1</dim>
					<dim>1</dim>
				</port>
			</output>
		</layer>
		<layer id="117" name="/model.20/cv3.0/cv3.0.0/conv/Conv" type="Add" version="opset1">
			<data auto_broadcast="numpy" />
			<input>
				<port id="0" precision="FP32">
					<dim>1</dim>
					<dim>256</dim>
					<dim>22</dim>
					<dim>22</dim>
				</port>
				<port id="1" precision="FP32">
					<dim>1</dim>
					<dim>256</dim>
					<dim>1</dim>
					<dim>1</dim>
				</port>
			</input>
			<output>
				<port id="2" precision="FP32" names="/model.20/cv3.0/cv3.0.0/conv/Conv_output_0">
					<dim>1</dim>
					<dim>256</dim>
					<dim>22</dim>
					<dim>22</dim>
				</port>
			</output>
		</layer>
		<layer id="118" name="/model.20/cv3.0/cv3.0.0/act/Mul" type="Swish" version="opset4">
			<input>
				<port id="0" precision="FP32">
					<dim>1</dim>
					<dim>256</dim>
					<dim>22</dim>
					<dim>22</dim>
				</port>
			</input>
			<output>
				<port id="1" precision="FP32" names="/model.20/cv3.0/cv3.0.0/act/Mul_output_0">
					<dim>1</dim>
					<dim>256</dim>
					<dim>22</dim>
					<dim>22</dim>
				</port>
			</output>
		</layer>
		<layer id="119" name="model.20.cv3.0.1.conv.weight_compressed" type="Const" version="opset1">
			<data element_type="f16" shape="256, 256, 3, 3" offset="16505222" size="1179648" />
			<output>
				<port id="0" precision="FP16">
					<dim>256</dim>
					<dim>256</dim>
					<dim>3</dim>
					<dim>3</dim>
				</port>
			</output>
		</layer>
		<layer id="120" name="model.20.cv3.0.1.conv.weight" type="Convert" version="opset1">
			<data destination_type="f32" />
			<rt_info>
				<attribute name="decompression" version="0" />
			</rt_info>
			<input>
				<port id="0" precision="FP16">
					<dim>256</dim>
					<dim>256</dim>
					<dim>3</dim>
					<dim>3</dim>
				</port>
			</input>
			<output>
				<port id="1" precision="FP32" names="model.20.cv3.0.1.conv.weight">
					<dim>256</dim>
					<dim>256</dim>
					<dim>3</dim>
					<dim>3</dim>
				</port>
			</output>
		</layer>
		<layer id="121" name="/model.20/cv3.0/cv3.0.1/conv/Conv/WithoutBiases" type="Convolution" version="opset1">
			<data strides="1, 1" dilations="1, 1" pads_begin="1, 1" pads_end="1, 1" auto_pad="explicit" />
			<input>
				<port id="0" precision="FP32">
					<dim>1</dim>
					<dim>256</dim>
					<dim>22</dim>
					<dim>22</dim>
				</port>
				<port id="1" precision="FP32">
					<dim>256</dim>
					<dim>256</dim>
					<dim>3</dim>
					<dim>3</dim>
				</port>
			</input>
			<output>
				<port id="2" precision="FP32">
					<dim>1</dim>
					<dim>256</dim>
					<dim>22</dim>
					<dim>22</dim>
				</port>
			</output>
		</layer>
		<layer id="122" name="Reshape_1088_compressed" type="Const" version="opset1">
			<data element_type="f16" shape="1, 256, 1, 1" offset="17684870" size="512" />
			<output>
				<port id="0" precision="FP16">
					<dim>1</dim>
					<dim>256</dim>
					<dim>1</dim>
					<dim>1</dim>
				</port>
			</output>
		</layer>
		<layer id="123" name="Reshape_1088" type="Convert" version="opset1">
			<data destination_type="f32" />
			<rt_info>
				<attribute name="decompression" version="0" />
			</rt_info>
			<input>
				<port id="0" precision="FP16">
					<dim>1</dim>
					<dim>256</dim>
					<dim>1</dim>
					<dim>1</dim>
				</port>
			</input>
			<output>
				<port id="1" precision="FP32">
					<dim>1</dim>
					<dim>256</dim>
					<dim>1</dim>
					<dim>1</dim>
				</port>
			</output>
		</layer>
		<layer id="124" name="/model.20/cv3.0/cv3.0.1/conv/Conv" type="Add" version="opset1">
			<data auto_broadcast="numpy" />
			<input>
				<port id="0" precision="FP32">
					<dim>1</dim>
					<dim>256</dim>
					<dim>22</dim>
					<dim>22</dim>
				</port>
				<port id="1" precision="FP32">
					<dim>1</dim>
					<dim>256</dim>
					<dim>1</dim>
					<dim>1</dim>
				</port>
			</input>
			<output>
				<port id="2" precision="FP32" names="/model.20/cv3.0/cv3.0.1/conv/Conv_output_0">
					<dim>1</dim>
					<dim>256</dim>
					<dim>22</dim>
					<dim>22</dim>
				</port>
			</output>
		</layer>
		<layer id="125" name="/model.20/cv3.0/cv3.0.1/act/Mul" type="Swish" version="opset4">
			<input>
				<port id="0" precision="FP32">
					<dim>1</dim>
					<dim>256</dim>
					<dim>22</dim>
					<dim>22</dim>
				</port>
			</input>
			<output>
				<port id="1" precision="FP32" names="/model.20/cv3.0/cv3.0.1/act/Mul_output_0">
					<dim>1</dim>
					<dim>256</dim>
					<dim>22</dim>
					<dim>22</dim>
				</port>
			</output>
		</layer>
		<layer id="126" name="model.20.cv3.0.2.weight_compressed" type="Const" version="opset1">
			<data element_type="f16" shape="15, 256, 1, 1" offset="17685382" size="7680" />
			<output>
				<port id="0" precision="FP16">
					<dim>15</dim>
					<dim>256</dim>
					<dim>1</dim>
					<dim>1</dim>
				</port>
			</output>
		</layer>
		<layer id="127" name="model.20.cv3.0.2.weight" type="Convert" version="opset1">
			<data destination_type="f32" />
			<rt_info>
				<attribute name="decompression" version="0" />
			</rt_info>
			<input>
				<port id="0" precision="FP16">
					<dim>15</dim>
					<dim>256</dim>
					<dim>1</dim>
					<dim>1</dim>
				</port>
			</input>
			<output>
				<port id="1" precision="FP32" names="model.20.cv3.0.2.weight">
					<dim>15</dim>
					<dim>256</dim>
					<dim>1</dim>
					<dim>1</dim>
				</port>
			</output>
		</layer>
		<layer id="128" name="/model.20/cv3.0/cv3.0.2/Conv/WithoutBiases" type="Convolution" version="opset1">
			<data strides="1, 1" dilations="1, 1" pads_begin="0, 0" pads_end="0, 0" auto_pad="explicit" />
			<input>
				<port id="0" precision="FP32">
					<dim>1</dim>
					<dim>256</dim>
					<dim>22</dim>
					<dim>22</dim>
				</port>
				<port id="1" precision="FP32">
					<dim>15</dim>
					<dim>256</dim>
					<dim>1</dim>
					<dim>1</dim>
				</port>
			</input>
			<output>
				<port id="2" precision="FP32">
					<dim>1</dim>
					<dim>15</dim>
					<dim>22</dim>
					<dim>22</dim>
				</port>
			</output>
		</layer>
		<layer id="129" name="Reshape_1194_compressed" type="Const" version="opset1">
			<data element_type="f16" shape="1, 15, 1, 1" offset="17693062" size="30" />
			<output>
				<port id="0" precision="FP16">
					<dim>1</dim>
					<dim>15</dim>
					<dim>1</dim>
					<dim>1</dim>
				</port>
			</output>
		</layer>
		<layer id="130" name="Reshape_1194" type="Convert" version="opset1">
			<data destination_type="f32" />
			<rt_info>
				<attribute name="decompression" version="0" />
			</rt_info>
			<input>
				<port id="0" precision="FP16">
					<dim>1</dim>
					<dim>15</dim>
					<dim>1</dim>
					<dim>1</dim>
				</port>
			</input>
			<output>
				<port id="1" precision="FP32">
					<dim>1</dim>
					<dim>15</dim>
					<dim>1</dim>
					<dim>1</dim>
				</port>
			</output>
		</layer>
		<layer id="131" name="/model.20/cv3.0/cv3.0.2/Conv" type="Add" version="opset1">
			<data auto_broadcast="numpy" />
			<input>
				<port id="0" precision="FP32">
					<dim>1</dim>
					<dim>15</dim>
					<dim>22</dim>
					<dim>22</dim>
				</port>
				<port id="1" precision="FP32">
					<dim>1</dim>
					<dim>15</dim>
					<dim>1</dim>
					<dim>1</dim>
				</port>
			</input>
			<output>
				<port id="2" precision="FP32" names="/model.20/cv3.0/cv3.0.2/Conv_output_0">
					<dim>1</dim>
					<dim>15</dim>
					<dim>22</dim>
					<dim>22</dim>
				</port>
			</output>
		</layer>
		<layer id="132" name="/model.20/Concat" type="Concat" version="opset1">
			<data axis="1" />
			<input>
				<port id="0" precision="FP32">
					<dim>1</dim>
					<dim>64</dim>
					<dim>22</dim>
					<dim>22</dim>
				</port>
				<port id="1" precision="FP32">
					<dim>1</dim>
					<dim>15</dim>
					<dim>22</dim>
					<dim>22</dim>
				</port>
			</input>
			<output>
				<port id="2" precision="FP32" names="/model.20/Concat_output_0">
					<dim>1</dim>
					<dim>79</dim>
					<dim>22</dim>
					<dim>22</dim>
				</port>
			</output>
		</layer>
		<layer id="133" name="/model.20/Constant_1_output_0" type="Const" version="opset1">
			<data element_type="i64" shape="3" offset="17693092" size="24" />
			<output>
				<port id="0" precision="I64" names="/model.20/Constant_1_output_0">
					<dim>3</dim>
				</port>
			</output>
		</layer>
		<layer id="134" name="/model.20/Reshape" type="Reshape" version="opset1">
			<data special_zero="true" />
			<input>
				<port id="0" precision="FP32">
					<dim>1</dim>
					<dim>79</dim>
					<dim>22</dim>
					<dim>22</dim>
				</port>
				<port id="1" precision="I64">
					<dim>3</dim>
				</port>
			</input>
			<output>
				<port id="2" precision="FP32" names="/model.20/Reshape_output_0">
					<dim>1</dim>
					<dim>79</dim>
					<dim>484</dim>
				</port>
			</output>
		</layer>
		<layer id="135" name="model.15.conv.weight_compressed" type="Const" version="opset1">
			<data element_type="f16" shape="512, 256, 3, 3" offset="17693116" size="2359296" />
			<output>
				<port id="0" precision="FP16">
					<dim>512</dim>
					<dim>256</dim>
					<dim>3</dim>
					<dim>3</dim>
				</port>
			</output>
		</layer>
		<layer id="136" name="model.15.conv.weight" type="Convert" version="opset1">
			<data destination_type="f32" />
			<rt_info>
				<attribute name="decompression" version="0" />
			</rt_info>
			<input>
				<port id="0" precision="FP16">
					<dim>512</dim>
					<dim>256</dim>
					<dim>3</dim>
					<dim>3</dim>
				</port>
			</input>
			<output>
				<port id="1" precision="FP32" names="model.15.conv.weight">
					<dim>512</dim>
					<dim>256</dim>
					<dim>3</dim>
					<dim>3</dim>
				</port>
			</output>
		</layer>
		<layer id="137" name="/model.15/conv/Conv/WithoutBiases" type="Convolution" version="opset1">
			<data strides="1, 1" dilations="1, 1" pads_begin="1, 1" pads_end="1, 1" auto_pad="explicit" />
			<input>
				<port id="0" precision="FP32">
					<dim>1</dim>
					<dim>256</dim>
					<dim>11</dim>
					<dim>11</dim>
				</port>
				<port id="1" precision="FP32">
					<dim>512</dim>
					<dim>256</dim>
					<dim>3</dim>
					<dim>3</dim>
				</port>
			</input>
			<output>
				<port id="2" precision="FP32">
					<dim>1</dim>
					<dim>512</dim>
					<dim>11</dim>
					<dim>11</dim>
				</port>
			</output>
		</layer>
		<layer id="138" name="Reshape_486_compressed" type="Const" version="opset1">
			<data element_type="f16" shape="1, 512, 1, 1" offset="20052412" size="1024" />
			<output>
				<port id="0" precision="FP16">
					<dim>1</dim>
					<dim>512</dim>
					<dim>1</dim>
					<dim>1</dim>
				</port>
			</output>
		</layer>
		<layer id="139" name="Reshape_486" type="Convert" version="opset1">
			<data destination_type="f32" />
			<rt_info>
				<attribute name="decompression" version="0" />
			</rt_info>
			<input>
				<port id="0" precision="FP16">
					<dim>1</dim>
					<dim>512</dim>
					<dim>1</dim>
					<dim>1</dim>
				</port>
			</input>
			<output>
				<port id="1" precision="FP32">
					<dim>1</dim>
					<dim>512</dim>
					<dim>1</dim>
					<dim>1</dim>
				</port>
			</output>
		</layer>
		<layer id="140" name="/model.15/conv/Conv" type="Add" version="opset1">
			<data auto_broadcast="numpy" />
			<input>
				<port id="0" precision="FP32">
					<dim>1</dim>
					<dim>512</dim>
					<dim>11</dim>
					<dim>11</dim>
				</port>
				<port id="1" precision="FP32">
					<dim>1</dim>
					<dim>512</dim>
					<dim>1</dim>
					<dim>1</dim>
				</port>
			</input>
			<output>
				<port id="2" precision="FP32" names="/model.15/conv/Conv_output_0">
					<dim>1</dim>
					<dim>512</dim>
					<dim>11</dim>
					<dim>11</dim>
				</port>
			</output>
		</layer>
		<layer id="141" name="/model.15/act/Mul" type="Swish" version="opset4">
			<input>
				<port id="0" precision="FP32">
					<dim>1</dim>
					<dim>512</dim>
					<dim>11</dim>
					<dim>11</dim>
				</port>
			</input>
			<output>
				<port id="1" precision="FP32" names="/model.15/act/Mul_output_0">
					<dim>1</dim>
					<dim>512</dim>
					<dim>11</dim>
					<dim>11</dim>
				</port>
			</output>
		</layer>
		<layer id="142" name="model.20.cv2.1.0.conv.weight_compressed" type="Const" version="opset1">
			<data element_type="f16" shape="64, 512, 3, 3" offset="20053436" size="589824" />
			<output>
				<port id="0" precision="FP16">
					<dim>64</dim>
					<dim>512</dim>
					<dim>3</dim>
					<dim>3</dim>
				</port>
			</output>
		</layer>
		<layer id="143" name="model.20.cv2.1.0.conv.weight" type="Convert" version="opset1">
			<data destination_type="f32" />
			<rt_info>
				<attribute name="decompression" version="0" />
			</rt_info>
			<input>
				<port id="0" precision="FP16">
					<dim>64</dim>
					<dim>512</dim>
					<dim>3</dim>
					<dim>3</dim>
				</port>
			</input>
			<output>
				<port id="1" precision="FP32" names="model.20.cv2.1.0.conv.weight">
					<dim>64</dim>
					<dim>512</dim>
					<dim>3</dim>
					<dim>3</dim>
				</port>
			</output>
		</layer>
		<layer id="144" name="/model.20/cv2.1/cv2.1.0/conv/Conv/WithoutBiases" type="Convolution" version="opset1">
			<data strides="1, 1" dilations="1, 1" pads_begin="1, 1" pads_end="1, 1" auto_pad="explicit" />
			<input>
				<port id="0" precision="FP32">
					<dim>1</dim>
					<dim>512</dim>
					<dim>11</dim>
					<dim>11</dim>
				</port>
				<port id="1" precision="FP32">
					<dim>64</dim>
					<dim>512</dim>
					<dim>3</dim>
					<dim>3</dim>
				</port>
			</input>
			<output>
				<port id="2" precision="FP32">
					<dim>1</dim>
					<dim>64</dim>
					<dim>11</dim>
					<dim>11</dim>
				</port>
			</output>
		</layer>
		<layer id="145" name="Reshape_592_compressed" type="Const" version="opset1">
			<data element_type="f16" shape="1, 64, 1, 1" offset="20643260" size="128" />
			<output>
				<port id="0" precision="FP16">
					<dim>1</dim>
					<dim>64</dim>
					<dim>1</dim>
					<dim>1</dim>
				</port>
			</output>
		</layer>
		<layer id="146" name="Reshape_592" type="Convert" version="opset1">
			<data destination_type="f32" />
			<rt_info>
				<attribute name="decompression" version="0" />
			</rt_info>
			<input>
				<port id="0" precision="FP16">
					<dim>1</dim>
					<dim>64</dim>
					<dim>1</dim>
					<dim>1</dim>
				</port>
			</input>
			<output>
				<port id="1" precision="FP32">
					<dim>1</dim>
					<dim>64</dim>
					<dim>1</dim>
					<dim>1</dim>
				</port>
			</output>
		</layer>
		<layer id="147" name="/model.20/cv2.1/cv2.1.0/conv/Conv" type="Add" version="opset1">
			<data auto_broadcast="numpy" />
			<input>
				<port id="0" precision="FP32">
					<dim>1</dim>
					<dim>64</dim>
					<dim>11</dim>
					<dim>11</dim>
				</port>
				<port id="1" precision="FP32">
					<dim>1</dim>
					<dim>64</dim>
					<dim>1</dim>
					<dim>1</dim>
				</port>
			</input>
			<output>
				<port id="2" precision="FP32" names="/model.20/cv2.1/cv2.1.0/conv/Conv_output_0">
					<dim>1</dim>
					<dim>64</dim>
					<dim>11</dim>
					<dim>11</dim>
				</port>
			</output>
		</layer>
		<layer id="148" name="/model.20/cv2.1/cv2.1.0/act/Mul" type="Swish" version="opset4">
			<input>
				<port id="0" precision="FP32">
					<dim>1</dim>
					<dim>64</dim>
					<dim>11</dim>
					<dim>11</dim>
				</port>
			</input>
			<output>
				<port id="1" precision="FP32" names="/model.20/cv2.1/cv2.1.0/act/Mul_output_0">
					<dim>1</dim>
					<dim>64</dim>
					<dim>11</dim>
					<dim>11</dim>
				</port>
			</output>
		</layer>
		<layer id="149" name="model.20.cv2.1.1.conv.weight_compressed" type="Const" version="opset1">
			<data element_type="f16" shape="64, 64, 3, 3" offset="20643388" size="73728" />
			<output>
				<port id="0" precision="FP16">
					<dim>64</dim>
					<dim>64</dim>
					<dim>3</dim>
					<dim>3</dim>
				</port>
			</output>
		</layer>
		<layer id="150" name="model.20.cv2.1.1.conv.weight" type="Convert" version="opset1">
			<data destination_type="f32" />
			<rt_info>
				<attribute name="decompression" version="0" />
			</rt_info>
			<input>
				<port id="0" precision="FP16">
					<dim>64</dim>
					<dim>64</dim>
					<dim>3</dim>
					<dim>3</dim>
				</port>
			</input>
			<output>
				<port id="1" precision="FP32" names="model.20.cv2.1.1.conv.weight">
					<dim>64</dim>
					<dim>64</dim>
					<dim>3</dim>
					<dim>3</dim>
				</port>
			</output>
		</layer>
		<layer id="151" name="/model.20/cv2.1/cv2.1.1/conv/Conv/WithoutBiases" type="Convolution" version="opset1">
			<data strides="1, 1" dilations="1, 1" pads_begin="1, 1" pads_end="1, 1" auto_pad="explicit" />
			<input>
				<port id="0" precision="FP32">
					<dim>1</dim>
					<dim>64</dim>
					<dim>11</dim>
					<dim>11</dim>
				</port>
				<port id="1" precision="FP32">
					<dim>64</dim>
					<dim>64</dim>
					<dim>3</dim>
					<dim>3</dim>
				</port>
			</input>
			<output>
				<port id="2" precision="FP32">
					<dim>1</dim>
					<dim>64</dim>
					<dim>11</dim>
					<dim>11</dim>
				</port>
			</output>
		</layer>
		<layer id="152" name="Reshape_742_compressed" type="Const" version="opset1">
			<data element_type="f16" shape="1, 64, 1, 1" offset="20717116" size="128" />
			<output>
				<port id="0" precision="FP16">
					<dim>1</dim>
					<dim>64</dim>
					<dim>1</dim>
					<dim>1</dim>
				</port>
			</output>
		</layer>
		<layer id="153" name="Reshape_742" type="Convert" version="opset1">
			<data destination_type="f32" />
			<rt_info>
				<attribute name="decompression" version="0" />
			</rt_info>
			<input>
				<port id="0" precision="FP16">
					<dim>1</dim>
					<dim>64</dim>
					<dim>1</dim>
					<dim>1</dim>
				</port>
			</input>
			<output>
				<port id="1" precision="FP32">
					<dim>1</dim>
					<dim>64</dim>
					<dim>1</dim>
					<dim>1</dim>
				</port>
			</output>
		</layer>
		<layer id="154" name="/model.20/cv2.1/cv2.1.1/conv/Conv" type="Add" version="opset1">
			<data auto_broadcast="numpy" />
			<input>
				<port id="0" precision="FP32">
					<dim>1</dim>
					<dim>64</dim>
					<dim>11</dim>
					<dim>11</dim>
				</port>
				<port id="1" precision="FP32">
					<dim>1</dim>
					<dim>64</dim>
					<dim>1</dim>
					<dim>1</dim>
				</port>
			</input>
			<output>
				<port id="2" precision="FP32" names="/model.20/cv2.1/cv2.1.1/conv/Conv_output_0">
					<dim>1</dim>
					<dim>64</dim>
					<dim>11</dim>
					<dim>11</dim>
				</port>
			</output>
		</layer>
		<layer id="155" name="/model.20/cv2.1/cv2.1.1/act/Mul" type="Swish" version="opset4">
			<input>
				<port id="0" precision="FP32">
					<dim>1</dim>
					<dim>64</dim>
					<dim>11</dim>
					<dim>11</dim>
				</port>
			</input>
			<output>
				<port id="1" precision="FP32" names="/model.20/cv2.1/cv2.1.1/act/Mul_output_0">
					<dim>1</dim>
					<dim>64</dim>
					<dim>11</dim>
					<dim>11</dim>
				</port>
			</output>
		</layer>
		<layer id="156" name="model.20.cv2.1.2.weight_compressed" type="Const" version="opset1">
			<data element_type="f16" shape="64, 64, 1, 1" offset="20717244" size="8192" />
			<output>
				<port id="0" precision="FP16">
					<dim>64</dim>
					<dim>64</dim>
					<dim>1</dim>
					<dim>1</dim>
				</port>
			</output>
		</layer>
		<layer id="157" name="model.20.cv2.1.2.weight" type="Convert" version="opset1">
			<data destination_type="f32" />
			<rt_info>
				<attribute name="decompression" version="0" />
			</rt_info>
			<input>
				<port id="0" precision="FP16">
					<dim>64</dim>
					<dim>64</dim>
					<dim>1</dim>
					<dim>1</dim>
				</port>
			</input>
			<output>
				<port id="1" precision="FP32" names="model.20.cv2.1.2.weight">
					<dim>64</dim>
					<dim>64</dim>
					<dim>1</dim>
					<dim>1</dim>
				</port>
			</output>
		</layer>
		<layer id="158" name="/model.20/cv2.1/cv2.1.2/Conv/WithoutBiases" type="Convolution" version="opset1">
			<data strides="1, 1" dilations="1, 1" pads_begin="0, 0" pads_end="0, 0" auto_pad="explicit" />
			<input>
				<port id="0" precision="FP32">
					<dim>1</dim>
					<dim>64</dim>
					<dim>11</dim>
					<dim>11</dim>
				</port>
				<port id="1" precision="FP32">
					<dim>64</dim>
					<dim>64</dim>
					<dim>1</dim>
					<dim>1</dim>
				</port>
			</input>
			<output>
				<port id="2" precision="FP32">
					<dim>1</dim>
					<dim>64</dim>
					<dim>11</dim>
					<dim>11</dim>
				</port>
			</output>
		</layer>
		<layer id="159" name="Reshape_941_compressed" type="Const" version="opset1">
			<data element_type="f16" shape="1, 64, 1, 1" offset="20725436" size="128" />
			<output>
				<port id="0" precision="FP16">
					<dim>1</dim>
					<dim>64</dim>
					<dim>1</dim>
					<dim>1</dim>
				</port>
			</output>
		</layer>
		<layer id="160" name="Reshape_941" type="Convert" version="opset1">
			<data destination_type="f32" />
			<rt_info>
				<attribute name="decompression" version="0" />
			</rt_info>
			<input>
				<port id="0" precision="FP16">
					<dim>1</dim>
					<dim>64</dim>
					<dim>1</dim>
					<dim>1</dim>
				</port>
			</input>
			<output>
				<port id="1" precision="FP32">
					<dim>1</dim>
					<dim>64</dim>
					<dim>1</dim>
					<dim>1</dim>
				</port>
			</output>
		</layer>
		<layer id="161" name="/model.20/cv2.1/cv2.1.2/Conv" type="Add" version="opset1">
			<data auto_broadcast="numpy" />
			<input>
				<port id="0" precision="FP32">
					<dim>1</dim>
					<dim>64</dim>
					<dim>11</dim>
					<dim>11</dim>
				</port>
				<port id="1" precision="FP32">
					<dim>1</dim>
					<dim>64</dim>
					<dim>1</dim>
					<dim>1</dim>
				</port>
			</input>
			<output>
				<port id="2" precision="FP32" names="/model.20/cv2.1/cv2.1.2/Conv_output_0">
					<dim>1</dim>
					<dim>64</dim>
					<dim>11</dim>
					<dim>11</dim>
				</port>
			</output>
		</layer>
		<layer id="162" name="model.20.cv3.1.0.conv.weight_compressed" type="Const" version="opset1">
			<data element_type="f16" shape="256, 512, 3, 3" offset="20725564" size="2359296" />
			<output>
				<port id="0" precision="FP16">
					<dim>256</dim>
					<dim>512</dim>
					<dim>3</dim>
					<dim>3</dim>
				</port>
			</output>
		</layer>
		<layer id="163" name="model.20.cv3.1.0.conv.weight" type="Convert" version="opset1">
			<data destination_type="f32" />
			<rt_info>
				<attribute name="decompression" version="0" />
			</rt_info>
			<input>
				<port id="0" precision="FP16">
					<dim>256</dim>
					<dim>512</dim>
					<dim>3</dim>
					<dim>3</dim>
				</port>
			</input>
			<output>
				<port id="1" precision="FP32" names="model.20.cv3.1.0.conv.weight">
					<dim>256</dim>
					<dim>512</dim>
					<dim>3</dim>
					<dim>3</dim>
				</port>
			</output>
		</layer>
		<layer id="164" name="/model.20/cv3.1/cv3.1.0/conv/Conv/WithoutBiases" type="Convolution" version="opset1">
			<data strides="1, 1" dilations="1, 1" pads_begin="1, 1" pads_end="1, 1" auto_pad="explicit" />
			<input>
				<port id="0" precision="FP32">
					<dim>1</dim>
					<dim>512</dim>
					<dim>11</dim>
					<dim>11</dim>
				</port>
				<port id="1" precision="FP32">
					<dim>256</dim>
					<dim>512</dim>
					<dim>3</dim>
					<dim>3</dim>
				</port>
			</input>
			<output>
				<port id="2" precision="FP32">
					<dim>1</dim>
					<dim>256</dim>
					<dim>11</dim>
					<dim>11</dim>
				</port>
			</output>
		</layer>
		<layer id="165" name="Reshape_640_compressed" type="Const" version="opset1">
			<data element_type="f16" shape="1, 256, 1, 1" offset="23084860" size="512" />
			<output>
				<port id="0" precision="FP16">
					<dim>1</dim>
					<dim>256</dim>
					<dim>1</dim>
					<dim>1</dim>
				</port>
			</output>
		</layer>
		<layer id="166" name="Reshape_640" type="Convert" version="opset1">
			<data destination_type="f32" />
			<rt_info>
				<attribute name="decompression" version="0" />
			</rt_info>
			<input>
				<port id="0" precision="FP16">
					<dim>1</dim>
					<dim>256</dim>
					<dim>1</dim>
					<dim>1</dim>
				</port>
			</input>
			<output>
				<port id="1" precision="FP32">
					<dim>1</dim>
					<dim>256</dim>
					<dim>1</dim>
					<dim>1</dim>
				</port>
			</output>
		</layer>
		<layer id="167" name="/model.20/cv3.1/cv3.1.0/conv/Conv" type="Add" version="opset1">
			<data auto_broadcast="numpy" />
			<input>
				<port id="0" precision="FP32">
					<dim>1</dim>
					<dim>256</dim>
					<dim>11</dim>
					<dim>11</dim>
				</port>
				<port id="1" precision="FP32">
					<dim>1</dim>
					<dim>256</dim>
					<dim>1</dim>
					<dim>1</dim>
				</port>
			</input>
			<output>
				<port id="2" precision="FP32" names="/model.20/cv3.1/cv3.1.0/conv/Conv_output_0">
					<dim>1</dim>
					<dim>256</dim>
					<dim>11</dim>
					<dim>11</dim>
				</port>
			</output>
		</layer>
		<layer id="168" name="/model.20/cv3.1/cv3.1.0/act/Mul" type="Swish" version="opset4">
			<input>
				<port id="0" precision="FP32">
					<dim>1</dim>
					<dim>256</dim>
					<dim>11</dim>
					<dim>11</dim>
				</port>
			</input>
			<output>
				<port id="1" precision="FP32" names="/model.20/cv3.1/cv3.1.0/act/Mul_output_0">
					<dim>1</dim>
					<dim>256</dim>
					<dim>11</dim>
					<dim>11</dim>
				</port>
			</output>
		</layer>
		<layer id="169" name="model.20.cv3.1.1.conv.weight_compressed" type="Const" version="opset1">
			<data element_type="f16" shape="256, 256, 3, 3" offset="23085372" size="1179648" />
			<output>
				<port id="0" precision="FP16">
					<dim>256</dim>
					<dim>256</dim>
					<dim>3</dim>
					<dim>3</dim>
				</port>
			</output>
		</layer>
		<layer id="170" name="model.20.cv3.1.1.conv.weight" type="Convert" version="opset1">
			<data destination_type="f32" />
			<rt_info>
				<attribute name="decompression" version="0" />
			</rt_info>
			<input>
				<port id="0" precision="FP16">
					<dim>256</dim>
					<dim>256</dim>
					<dim>3</dim>
					<dim>3</dim>
				</port>
			</input>
			<output>
				<port id="1" precision="FP32" names="model.20.cv3.1.1.conv.weight">
					<dim>256</dim>
					<dim>256</dim>
					<dim>3</dim>
					<dim>3</dim>
				</port>
			</output>
		</layer>
		<layer id="171" name="/model.20/cv3.1/cv3.1.1/conv/Conv/WithoutBiases" type="Convolution" version="opset1">
			<data strides="1, 1" dilations="1, 1" pads_begin="1, 1" pads_end="1, 1" auto_pad="explicit" />
			<input>
				<port id="0" precision="FP32">
					<dim>1</dim>
					<dim>256</dim>
					<dim>11</dim>
					<dim>11</dim>
				</port>
				<port id="1" precision="FP32">
					<dim>256</dim>
					<dim>256</dim>
					<dim>3</dim>
					<dim>3</dim>
				</port>
			</input>
			<output>
				<port id="2" precision="FP32">
					<dim>1</dim>
					<dim>256</dim>
					<dim>11</dim>
					<dim>11</dim>
				</port>
			</output>
		</layer>
		<layer id="172" name="Reshape_790_compressed" type="Const" version="opset1">
			<data element_type="f16" shape="1, 256, 1, 1" offset="24265020" size="512" />
			<output>
				<port id="0" precision="FP16">
					<dim>1</dim>
					<dim>256</dim>
					<dim>1</dim>
					<dim>1</dim>
				</port>
			</output>
		</layer>
		<layer id="173" name="Reshape_790" type="Convert" version="opset1">
			<data destination_type="f32" />
			<rt_info>
				<attribute name="decompression" version="0" />
			</rt_info>
			<input>
				<port id="0" precision="FP16">
					<dim>1</dim>
					<dim>256</dim>
					<dim>1</dim>
					<dim>1</dim>
				</port>
			</input>
			<output>
				<port id="1" precision="FP32">
					<dim>1</dim>
					<dim>256</dim>
					<dim>1</dim>
					<dim>1</dim>
				</port>
			</output>
		</layer>
		<layer id="174" name="/model.20/cv3.1/cv3.1.1/conv/Conv" type="Add" version="opset1">
			<data auto_broadcast="numpy" />
			<input>
				<port id="0" precision="FP32">
					<dim>1</dim>
					<dim>256</dim>
					<dim>11</dim>
					<dim>11</dim>
				</port>
				<port id="1" precision="FP32">
					<dim>1</dim>
					<dim>256</dim>
					<dim>1</dim>
					<dim>1</dim>
				</port>
			</input>
			<output>
				<port id="2" precision="FP32" names="/model.20/cv3.1/cv3.1.1/conv/Conv_output_0">
					<dim>1</dim>
					<dim>256</dim>
					<dim>11</dim>
					<dim>11</dim>
				</port>
			</output>
		</layer>
		<layer id="175" name="/model.20/cv3.1/cv3.1.1/act/Mul" type="Swish" version="opset4">
			<input>
				<port id="0" precision="FP32">
					<dim>1</dim>
					<dim>256</dim>
					<dim>11</dim>
					<dim>11</dim>
				</port>
			</input>
			<output>
				<port id="1" precision="FP32" names="/model.20/cv3.1/cv3.1.1/act/Mul_output_0">
					<dim>1</dim>
					<dim>256</dim>
					<dim>11</dim>
					<dim>11</dim>
				</port>
			</output>
		</layer>
		<layer id="176" name="model.20.cv3.1.2.weight_compressed" type="Const" version="opset1">
			<data element_type="f16" shape="15, 256, 1, 1" offset="24265532" size="7680" />
			<output>
				<port id="0" precision="FP16">
					<dim>15</dim>
					<dim>256</dim>
					<dim>1</dim>
					<dim>1</dim>
				</port>
			</output>
		</layer>
		<layer id="177" name="model.20.cv3.1.2.weight" type="Convert" version="opset1">
			<data destination_type="f32" />
			<rt_info>
				<attribute name="decompression" version="0" />
			</rt_info>
			<input>
				<port id="0" precision="FP16">
					<dim>15</dim>
					<dim>256</dim>
					<dim>1</dim>
					<dim>1</dim>
				</port>
			</input>
			<output>
				<port id="1" precision="FP32" names="model.20.cv3.1.2.weight">
					<dim>15</dim>
					<dim>256</dim>
					<dim>1</dim>
					<dim>1</dim>
				</port>
			</output>
		</layer>
		<layer id="178" name="/model.20/cv3.1/cv3.1.2/Conv/WithoutBiases" type="Convolution" version="opset1">
			<data strides="1, 1" dilations="1, 1" pads_begin="0, 0" pads_end="0, 0" auto_pad="explicit" />
			<input>
				<port id="0" precision="FP32">
					<dim>1</dim>
					<dim>256</dim>
					<dim>11</dim>
					<dim>11</dim>
				</port>
				<port id="1" precision="FP32">
					<dim>15</dim>
					<dim>256</dim>
					<dim>1</dim>
					<dim>1</dim>
				</port>
			</input>
			<output>
				<port id="2" precision="FP32">
					<dim>1</dim>
					<dim>15</dim>
					<dim>11</dim>
					<dim>11</dim>
				</port>
			</output>
		</layer>
		<layer id="179" name="Reshape_989_compressed" type="Const" version="opset1">
			<data element_type="f16" shape="1, 15, 1, 1" offset="24273212" size="30" />
			<output>
				<port id="0" precision="FP16">
					<dim>1</dim>
					<dim>15</dim>
					<dim>1</dim>
					<dim>1</dim>
				</port>
			</output>
		</layer>
		<layer id="180" name="Reshape_989" type="Convert" version="opset1">
			<data destination_type="f32" />
			<rt_info>
				<attribute name="decompression" version="0" />
			</rt_info>
			<input>
				<port id="0" precision="FP16">
					<dim>1</dim>
					<dim>15</dim>
					<dim>1</dim>
					<dim>1</dim>
				</port>
			</input>
			<output>
				<port id="1" precision="FP32">
					<dim>1</dim>
					<dim>15</dim>
					<dim>1</dim>
					<dim>1</dim>
				</port>
			</output>
		</layer>
		<layer id="181" name="/model.20/cv3.1/cv3.1.2/Conv" type="Add" version="opset1">
			<data auto_broadcast="numpy" />
			<input>
				<port id="0" precision="FP32">
					<dim>1</dim>
					<dim>15</dim>
					<dim>11</dim>
					<dim>11</dim>
				</port>
				<port id="1" precision="FP32">
					<dim>1</dim>
					<dim>15</dim>
					<dim>1</dim>
					<dim>1</dim>
				</port>
			</input>
			<output>
				<port id="2" precision="FP32" names="/model.20/cv3.1/cv3.1.2/Conv_output_0">
					<dim>1</dim>
					<dim>15</dim>
					<dim>11</dim>
					<dim>11</dim>
				</port>
			</output>
		</layer>
		<layer id="182" name="/model.20/Concat_1" type="Concat" version="opset1">
			<data axis="1" />
			<input>
				<port id="0" precision="FP32">
					<dim>1</dim>
					<dim>64</dim>
					<dim>11</dim>
					<dim>11</dim>
				</port>
				<port id="1" precision="FP32">
					<dim>1</dim>
					<dim>15</dim>
					<dim>11</dim>
					<dim>11</dim>
				</port>
			</input>
			<output>
				<port id="2" precision="FP32" names="/model.20/Concat_1_output_0">
					<dim>1</dim>
					<dim>79</dim>
					<dim>11</dim>
					<dim>11</dim>
				</port>
			</output>
		</layer>
		<layer id="183" name="/model.20/Reshape_1" type="Reshape" version="opset1">
			<data special_zero="true" />
			<input>
				<port id="0" precision="FP32">
					<dim>1</dim>
					<dim>79</dim>
					<dim>11</dim>
					<dim>11</dim>
				</port>
				<port id="1" precision="I64">
					<dim>3</dim>
				</port>
			</input>
			<output>
				<port id="2" precision="FP32" names="/model.20/Reshape_1_output_0">
					<dim>1</dim>
					<dim>79</dim>
					<dim>121</dim>
				</port>
			</output>
		</layer>
		<layer id="184" name="/model.20/Concat_2" type="Concat" version="opset1">
			<data axis="2" />
			<input>
				<port id="0" precision="FP32">
					<dim>1</dim>
					<dim>79</dim>
					<dim>484</dim>
				</port>
				<port id="1" precision="FP32">
					<dim>1</dim>
					<dim>79</dim>
					<dim>121</dim>
				</port>
			</input>
			<output>
				<port id="2" precision="FP32" names="/model.20/Concat_2_output_0">
					<dim>1</dim>
					<dim>79</dim>
					<dim>605</dim>
				</port>
			</output>
		</layer>
		<layer id="185" name="Constant_1227" type="Const" version="opset1">
			<data element_type="i64" shape="" offset="24273242" size="8" />
			<output>
				<port id="0" precision="I64" />
			</output>
		</layer>
		<layer id="186" name="Constant_1228" type="Const" version="opset1">
			<data element_type="i64" shape="2" offset="24273250" size="16" />
			<output>
				<port id="0" precision="I64">
					<dim>2</dim>
				</port>
			</output>
		</layer>
		<layer id="187" name="/model.20/Split" type="VariadicSplit" version="opset1">
			<input>
				<port id="0" precision="FP32">
					<dim>1</dim>
					<dim>79</dim>
					<dim>605</dim>
				</port>
				<port id="1" precision="I64" />
				<port id="2" precision="I64">
					<dim>2</dim>
				</port>
			</input>
			<output>
				<port id="3" precision="FP32" names="/model.20/Split_output_0">
					<dim>1</dim>
					<dim>64</dim>
					<dim>605</dim>
				</port>
				<port id="4" precision="FP32" names="/model.20/Split_output_1">
					<dim>1</dim>
					<dim>15</dim>
					<dim>605</dim>
				</port>
			</output>
		</layer>
		<layer id="188" name="/model.20/dfl/Constant_output_0" type="Const" version="opset1">
			<data element_type="i64" shape="4" offset="24273266" size="32" />
			<output>
				<port id="0" precision="I64" names="/model.20/dfl/Constant_output_0">
					<dim>4</dim>
				</port>
			</output>
		</layer>
		<layer id="189" name="/model.20/dfl/Reshape" type="Reshape" version="opset1">
			<data special_zero="true" />
			<input>
				<port id="0" precision="FP32">
					<dim>1</dim>
					<dim>64</dim>
					<dim>605</dim>
				</port>
				<port id="1" precision="I64">
					<dim>4</dim>
				</port>
			</input>
			<output>
				<port id="2" precision="FP32" names="/model.20/dfl/Reshape_output_0">
					<dim>1</dim>
					<dim>4</dim>
					<dim>16</dim>
					<dim>605</dim>
				</port>
			</output>
		</layer>
		<layer id="190" name="Constant_1237" type="Const" version="opset1">
			<data element_type="i64" shape="4" offset="24273298" size="32" />
			<output>
				<port id="0" precision="I64">
					<dim>4</dim>
				</port>
			</output>
		</layer>
		<layer id="191" name="/model.20/dfl/Transpose" type="Transpose" version="opset1">
			<input>
				<port id="0" precision="FP32">
					<dim>1</dim>
					<dim>4</dim>
					<dim>16</dim>
					<dim>605</dim>
				</port>
				<port id="1" precision="I64">
					<dim>4</dim>
				</port>
			</input>
			<output>
				<port id="2" precision="FP32" names="/model.20/dfl/Transpose_output_0">
					<dim>1</dim>
					<dim>605</dim>
					<dim>4</dim>
					<dim>16</dim>
				</port>
			</output>
		</layer>
		<layer id="192" name="ShapeOf_1239" type="ShapeOf" version="opset1">
			<input>
				<port id="0" precision="FP32">
					<dim>1</dim>
					<dim>605</dim>
					<dim>4</dim>
					<dim>16</dim>
				</port>
			</input>
			<output>
				<port id="1" precision="I64">
					<dim>4</dim>
				</port>
			</output>
		</layer>
		<layer id="193" name="Constant_1242" type="Const" version="opset1">
			<data element_type="i64" shape="1" offset="24273330" size="8" />
			<output>
				<port id="0" precision="I64">
					<dim>1</dim>
				</port>
			</output>
		</layer>
		<layer id="194" name="Constant_1241" type="Const" version="opset1">
			<data element_type="i64" shape="1" offset="24273338" size="8" />
			<output>
				<port id="0" precision="I64">
					<dim>1</dim>
				</port>
			</output>
		</layer>
		<layer id="195" name="Constant_1243" type="Const" version="opset1">
			<data element_type="i64" shape="1" offset="24273242" size="8" />
			<output>
				<port id="0" precision="I64">
					<dim>1</dim>
				</port>
			</output>
		</layer>
		<layer id="196" name="StridedSlice_1244" type="StridedSlice" version="opset1">
			<data begin_mask="0" end_mask="0" new_axis_mask="" shrink_axis_mask="" ellipsis_mask="" />
			<input>
				<port id="0" precision="I64">
					<dim>4</dim>
				</port>
				<port id="1" precision="I64">
					<dim>1</dim>
				</port>
				<port id="2" precision="I64">
					<dim>1</dim>
				</port>
				<port id="3" precision="I64">
					<dim>1</dim>
				</port>
			</input>
			<output>
				<port id="4" precision="I64">
					<dim>3</dim>
				</port>
			</output>
		</layer>
		<layer id="197" name="Constant_1245" type="Const" version="opset1">
			<data element_type="i64" shape="" offset="24273330" size="8" />
			<output>
				<port id="0" precision="I64" />
			</output>
		</layer>
		<layer id="198" name="ReduceProd_1246" type="ReduceProd" version="opset1">
			<data keep_dims="true" />
			<input>
				<port id="0" precision="I64">
					<dim>3</dim>
				</port>
				<port id="1" precision="I64" />
			</input>
			<output>
				<port id="2" precision="I64">
					<dim>1</dim>
				</port>
			</output>
		</layer>
		<layer id="199" name="Constant_1247" type="Const" version="opset1">
			<data element_type="i64" shape="1" offset="24273346" size="8" />
			<output>
				<port id="0" precision="I64">
					<dim>1</dim>
				</port>
			</output>
		</layer>
		<layer id="200" name="Concat_1248" type="Concat" version="opset1">
			<data axis="0" />
			<input>
				<port id="0" precision="I64">
					<dim>1</dim>
				</port>
				<port id="1" precision="I64">
					<dim>1</dim>
				</port>
			</input>
			<output>
				<port id="2" precision="I64">
					<dim>2</dim>
				</port>
			</output>
		</layer>
		<layer id="201" name="Reshape_1249" type="Reshape" version="opset1">
			<data special_zero="true" />
			<input>
				<port id="0" precision="FP32">
					<dim>1</dim>
					<dim>605</dim>
					<dim>4</dim>
					<dim>16</dim>
				</port>
				<port id="1" precision="I64">
					<dim>2</dim>
				</port>
			</input>
			<output>
				<port id="2" precision="FP32">
					<dim>2420</dim>
					<dim>16</dim>
				</port>
			</output>
		</layer>
		<layer id="202" name="Softmax_1293" type="SoftMax" version="opset8">
			<data axis="1" />
			<input>
				<port id="0" precision="FP32">
					<dim>2420</dim>
					<dim>16</dim>
				</port>
			</input>
			<output>
				<port id="1" precision="FP32">
					<dim>2420</dim>
					<dim>16</dim>
				</port>
			</output>
		</layer>
		<layer id="203" name="/model.20/dfl/Softmax" type="Reshape" version="opset1">
			<data special_zero="false" />
			<input>
				<port id="0" precision="FP32">
					<dim>2420</dim>
					<dim>16</dim>
				</port>
				<port id="1" precision="I64">
					<dim>4</dim>
				</port>
			</input>
			<output>
				<port id="2" precision="FP32" names="/model.20/dfl/Softmax_output_0">
					<dim>1</dim>
					<dim>605</dim>
					<dim>4</dim>
					<dim>16</dim>
				</port>
			</output>
		</layer>
		<layer id="204" name="Constant_1301" type="Const" version="opset1">
			<data element_type="i64" shape="4" offset="24273354" size="32" />
			<output>
				<port id="0" precision="I64">
					<dim>4</dim>
				</port>
			</output>
		</layer>
		<layer id="205" name="/model.20/dfl/Transpose_1" type="Transpose" version="opset1">
			<input>
				<port id="0" precision="FP32">
					<dim>1</dim>
					<dim>605</dim>
					<dim>4</dim>
					<dim>16</dim>
				</port>
				<port id="1" precision="I64">
					<dim>4</dim>
				</port>
			</input>
			<output>
				<port id="2" precision="FP32" names="/model.20/dfl/Transpose_1_output_0">
					<dim>1</dim>
					<dim>16</dim>
					<dim>4</dim>
					<dim>605</dim>
				</port>
			</output>
		</layer>
		<layer id="206" name="model.20.dfl.conv.weight_compressed" type="Const" version="opset1">
			<data element_type="f16" shape="1, 16, 1, 1" offset="24273386" size="32" />
			<output>
				<port id="0" precision="FP16">
					<dim>1</dim>
					<dim>16</dim>
					<dim>1</dim>
					<dim>1</dim>
				</port>
			</output>
		</layer>
		<layer id="207" name="model.20.dfl.conv.weight" type="Convert" version="opset1">
			<data destination_type="f32" />
			<rt_info>
				<attribute name="decompression" version="0" />
			</rt_info>
			<input>
				<port id="0" precision="FP16">
					<dim>1</dim>
					<dim>16</dim>
					<dim>1</dim>
					<dim>1</dim>
				</port>
			</input>
			<output>
				<port id="1" precision="FP32" names="model.20.dfl.conv.weight">
					<dim>1</dim>
					<dim>16</dim>
					<dim>1</dim>
					<dim>1</dim>
				</port>
			</output>
		</layer>
		<layer id="208" name="/model.20/dfl/conv/Conv" type="Convolution" version="opset1">
			<data strides="1, 1" dilations="1, 1" pads_begin="0, 0" pads_end="0, 0" auto_pad="explicit" />
			<input>
				<port id="0" precision="FP32">
					<dim>1</dim>
					<dim>16</dim>
					<dim>4</dim>
					<dim>605</dim>
				</port>
				<port id="1" precision="FP32">
					<dim>1</dim>
					<dim>16</dim>
					<dim>1</dim>
					<dim>1</dim>
				</port>
			</input>
			<output>
				<port id="2" precision="FP32" names="/model.20/dfl/conv/Conv_output_0">
					<dim>1</dim>
					<dim>1</dim>
					<dim>4</dim>
					<dim>605</dim>
				</port>
			</output>
		</layer>
		<layer id="209" name="/model.20/dfl/Constant_1_output_0" type="Const" version="opset1">
			<data element_type="i64" shape="3" offset="24273418" size="24" />
			<output>
				<port id="0" precision="I64" names="/model.20/dfl/Constant_1_output_0">
					<dim>3</dim>
				</port>
			</output>
		</layer>
		<layer id="210" name="/model.20/dfl/Reshape_1" type="Reshape" version="opset1">
			<data special_zero="true" />
			<input>
				<port id="0" precision="FP32">
					<dim>1</dim>
					<dim>1</dim>
					<dim>4</dim>
					<dim>605</dim>
				</port>
				<port id="1" precision="I64">
					<dim>3</dim>
				</port>
			</input>
			<output>
				<port id="2" precision="FP32" names="/model.20/dfl/Reshape_1_output_0">
					<dim>1</dim>
					<dim>4</dim>
					<dim>605</dim>
				</port>
			</output>
		</layer>
		<layer id="211" name="Constant_1311" type="Const" version="opset1">
			<data element_type="i64" shape="" offset="24273242" size="8" />
			<output>
				<port id="0" precision="I64" />
			</output>
		</layer>
		<layer id="212" name="Constant_1312" type="Const" version="opset1">
			<data element_type="i64" shape="2" offset="24273442" size="16" />
			<output>
				<port id="0" precision="I64">
					<dim>2</dim>
				</port>
			</output>
		</layer>
		<layer id="213" name="/model.20/Split_1" type="VariadicSplit" version="opset1">
			<input>
				<port id="0" precision="FP32">
					<dim>1</dim>
					<dim>4</dim>
					<dim>605</dim>
				</port>
				<port id="1" precision="I64" />
				<port id="2" precision="I64">
					<dim>2</dim>
				</port>
			</input>
			<output>
				<port id="3" precision="FP32" names="/model.20/Split_1_output_0">
					<dim>1</dim>
					<dim>2</dim>
					<dim>605</dim>
				</port>
				<port id="4" precision="FP32" names="/model.20/Split_1_output_1">
					<dim>1</dim>
					<dim>2</dim>
					<dim>605</dim>
				</port>
			</output>
		</layer>
		<layer id="214" name="/model.20/Sub" type="Subtract" version="opset1">
			<data auto_broadcast="numpy" />
			<input>
				<port id="0" precision="FP32">
					<dim>1</dim>
					<dim>2</dim>
					<dim>605</dim>
				</port>
				<port id="1" precision="FP32">
					<dim>1</dim>
					<dim>2</dim>
					<dim>605</dim>
				</port>
			</input>
			<output>
				<port id="2" precision="FP32" names="/model.20/Sub_output_0">
					<dim>1</dim>
					<dim>2</dim>
					<dim>605</dim>
				</port>
			</output>
		</layer>
		<layer id="215" name="/model.20/Constant_3_output_0_compressed" type="Const" version="opset1">
			<data element_type="f16" shape="1, 2, 605" offset="0" size="2420" />
			<output>
				<port id="0" precision="FP16">
					<dim>1</dim>
					<dim>2</dim>
					<dim>605</dim>
				</port>
			</output>
		</layer>
		<layer id="216" name="/model.20/Constant_3_output_0" type="Convert" version="opset1">
			<data destination_type="f32" />
			<rt_info>
				<attribute name="decompression" version="0" />
			</rt_info>
			<input>
				<port id="0" precision="FP16">
					<dim>1</dim>
					<dim>2</dim>
					<dim>605</dim>
				</port>
			</input>
			<output>
				<port id="1" precision="FP32" names="/model.20/Constant_3_output_0">
					<dim>1</dim>
					<dim>2</dim>
					<dim>605</dim>
				</port>
			</output>
		</layer>
		<layer id="217" name="/model.20/Add" type="Add" version="opset1">
			<data auto_broadcast="numpy" />
			<input>
				<port id="0" precision="FP32">
					<dim>1</dim>
					<dim>2</dim>
					<dim>605</dim>
				</port>
				<port id="1" precision="FP32">
					<dim>1</dim>
					<dim>2</dim>
					<dim>605</dim>
				</port>
			</input>
			<output>
				<port id="2" precision="FP32" names="/model.20/Add_output_0">
					<dim>1</dim>
					<dim>2</dim>
					<dim>605</dim>
				</port>
			</output>
		</layer>
		<layer id="218" name="/model.20/Add_1" type="Add" version="opset1">
			<data auto_broadcast="numpy" />
			<input>
				<port id="0" precision="FP32">
					<dim>1</dim>
					<dim>2</dim>
					<dim>605</dim>
				</port>
				<port id="1" precision="FP32">
					<dim>1</dim>
					<dim>2</dim>
					<dim>605</dim>
				</port>
			</input>
			<output>
				<port id="2" precision="FP32" names="/model.20/Add_1_output_0">
					<dim>1</dim>
					<dim>2</dim>
					<dim>605</dim>
				</port>
			</output>
		</layer>
		<layer id="219" name="Constant_4518_compressed" type="Const" version="opset1">
			<data element_type="f16" shape="1, 1, 1" offset="24273458" size="2" />
			<output>
				<port id="0" precision="FP16">
					<dim>1</dim>
					<dim>1</dim>
					<dim>1</dim>
				</port>
			</output>
		</layer>
		<layer id="220" name="Constant_4518" type="Convert" version="opset1">
			<data destination_type="f32" />
			<rt_info>
				<attribute name="decompression" version="0" />
			</rt_info>
			<input>
				<port id="0" precision="FP16">
					<dim>1</dim>
					<dim>1</dim>
					<dim>1</dim>
				</port>
			</input>
			<output>
				<port id="1" precision="FP32">
					<dim>1</dim>
					<dim>1</dim>
					<dim>1</dim>
				</port>
			</output>
		</layer>
		<layer id="221" name="/model.20/Div" type="Multiply" version="opset1">
			<data auto_broadcast="numpy" />
			<input>
				<port id="0" precision="FP32">
					<dim>1</dim>
					<dim>2</dim>
					<dim>605</dim>
				</port>
				<port id="1" precision="FP32">
					<dim>1</dim>
					<dim>1</dim>
					<dim>1</dim>
				</port>
			</input>
			<output>
				<port id="2" precision="FP32" names="/model.20/Div_output_0">
					<dim>1</dim>
					<dim>2</dim>
					<dim>605</dim>
				</port>
			</output>
		</layer>
		<layer id="222" name="/model.20/Sub_1" type="Subtract" version="opset1">
			<data auto_broadcast="numpy" />
			<input>
				<port id="0" precision="FP32">
					<dim>1</dim>
					<dim>2</dim>
					<dim>605</dim>
				</port>
				<port id="1" precision="FP32">
					<dim>1</dim>
					<dim>2</dim>
					<dim>605</dim>
				</port>
			</input>
			<output>
				<port id="2" precision="FP32" names="/model.20/Sub_1_output_0">
					<dim>1</dim>
					<dim>2</dim>
					<dim>605</dim>
				</port>
			</output>
		</layer>
		<layer id="223" name="/model.20/Concat_3" type="Concat" version="opset1">
			<data axis="1" />
			<input>
				<port id="0" precision="FP32">
					<dim>1</dim>
					<dim>2</dim>
					<dim>605</dim>
				</port>
				<port id="1" precision="FP32">
					<dim>1</dim>
					<dim>2</dim>
					<dim>605</dim>
				</port>
			</input>
			<output>
				<port id="2" precision="FP32" names="/model.20/Concat_3_output_0">
					<dim>1</dim>
					<dim>4</dim>
					<dim>605</dim>
				</port>
			</output>
		</layer>
		<layer id="224" name="Constant_4519_compressed" type="Const" version="opset1">
			<data element_type="f16" shape="1, 1, 605" offset="24273460" size="1210" />
			<output>
				<port id="0" precision="FP16">
					<dim>1</dim>
					<dim>1</dim>
					<dim>605</dim>
				</port>
			</output>
		</layer>
		<layer id="225" name="Constant_4519" type="Convert" version="opset1">
			<data destination_type="f32" />
			<rt_info>
				<attribute name="decompression" version="0" />
			</rt_info>
			<input>
				<port id="0" precision="FP16">
					<dim>1</dim>
					<dim>1</dim>
					<dim>605</dim>
				</port>
			</input>
			<output>
				<port id="1" precision="FP32">
					<dim>1</dim>
					<dim>1</dim>
					<dim>605</dim>
				</port>
			</output>
		</layer>
		<layer id="226" name="/model.20/Mul" type="Multiply" version="opset1">
			<data auto_broadcast="numpy" />
			<input>
				<port id="0" precision="FP32">
					<dim>1</dim>
					<dim>4</dim>
					<dim>605</dim>
				</port>
				<port id="1" precision="FP32">
					<dim>1</dim>
					<dim>1</dim>
					<dim>605</dim>
				</port>
			</input>
			<output>
				<port id="2" precision="FP32" names="/model.20/Mul_output_0">
					<dim>1</dim>
					<dim>4</dim>
					<dim>605</dim>
				</port>
			</output>
		</layer>
		<layer id="227" name="/model.20/Sigmoid" type="Sigmoid" version="opset1">
			<input>
				<port id="0" precision="FP32">
					<dim>1</dim>
					<dim>15</dim>
					<dim>605</dim>
				</port>
			</input>
			<output>
				<port id="1" precision="FP32" names="/model.20/Sigmoid_output_0">
					<dim>1</dim>
					<dim>15</dim>
					<dim>605</dim>
				</port>
			</output>
		</layer>
		<layer id="228" name="output0" type="Concat" version="opset1">
			<data axis="1" />
			<input>
				<port id="0" precision="FP32">
					<dim>1</dim>
					<dim>4</dim>
					<dim>605</dim>
				</port>
				<port id="1" precision="FP32">
					<dim>1</dim>
					<dim>15</dim>
					<dim>605</dim>
				</port>
			</input>
			<output>
				<port id="2" precision="FP32" names="output0">
					<dim>1</dim>
					<dim>19</dim>
					<dim>605</dim>
				</port>
			</output>
		</layer>
		<layer id="229" name="output0/sink_port_0" type="Result" version="opset1">
			<input>
				<port id="0" precision="FP32">
					<dim>1</dim>
					<dim>19</dim>
					<dim>605</dim>
				</port>
			</input>
		</layer>
	</layers>
	<edges>
		<edge from-layer="0" from-port="0" to-layer="5" to-port="0" />
		<edge from-layer="1" from-port="0" to-layer="2" to-port="0" />
		<edge from-layer="2" from-port="1" to-layer="214" to-port="0" />
		<edge from-layer="3" from-port="0" to-layer="4" to-port="0" />
		<edge from-layer="4" from-port="1" to-layer="5" to-port="1" />
		<edge from-layer="5" from-port="2" to-layer="8" to-port="0" />
		<edge from-layer="6" from-port="0" to-layer="7" to-port="0" />
		<edge from-layer="7" from-port="1" to-layer="8" to-port="1" />
		<edge from-layer="8" from-port="2" to-layer="9" to-port="0" />
		<edge from-layer="9" from-port="1" to-layer="10" to-port="0" />
		<edge from-layer="10" from-port="1" to-layer="13" to-port="0" />
		<edge from-layer="11" from-port="0" to-layer="12" to-port="0" />
		<edge from-layer="12" from-port="1" to-layer="13" to-port="1" />
		<edge from-layer="13" from-port="2" to-layer="16" to-port="0" />
		<edge from-layer="14" from-port="0" to-layer="15" to-port="0" />
		<edge from-layer="15" from-port="1" to-layer="16" to-port="1" />
		<edge from-layer="16" from-port="2" to-layer="17" to-port="0" />
		<edge from-layer="17" from-port="1" to-layer="18" to-port="0" />
		<edge from-layer="18" from-port="1" to-layer="21" to-port="0" />
		<edge from-layer="19" from-port="0" to-layer="20" to-port="0" />
		<edge from-layer="20" from-port="1" to-layer="21" to-port="1" />
		<edge from-layer="21" from-port="2" to-layer="24" to-port="0" />
		<edge from-layer="22" from-port="0" to-layer="23" to-port="0" />
		<edge from-layer="23" from-port="1" to-layer="24" to-port="1" />
		<edge from-layer="24" from-port="2" to-layer="25" to-port="0" />
		<edge from-layer="25" from-port="1" to-layer="26" to-port="0" />
		<edge from-layer="26" from-port="1" to-layer="29" to-port="0" />
		<edge from-layer="27" from-port="0" to-layer="28" to-port="0" />
		<edge from-layer="28" from-port="1" to-layer="29" to-port="1" />
		<edge from-layer="29" from-port="2" to-layer="32" to-port="0" />
		<edge from-layer="30" from-port="0" to-layer="31" to-port="0" />
		<edge from-layer="31" from-port="1" to-layer="32" to-port="1" />
		<edge from-layer="32" from-port="2" to-layer="33" to-port="0" />
		<edge from-layer="33" from-port="1" to-layer="34" to-port="0" />
		<edge from-layer="34" from-port="1" to-layer="37" to-port="0" />
		<edge from-layer="35" from-port="0" to-layer="36" to-port="0" />
		<edge from-layer="36" from-port="1" to-layer="37" to-port="1" />
		<edge from-layer="37" from-port="2" to-layer="40" to-port="0" />
		<edge from-layer="38" from-port="0" to-layer="39" to-port="0" />
		<edge from-layer="39" from-port="1" to-layer="40" to-port="1" />
		<edge from-layer="40" from-port="2" to-layer="41" to-port="0" />
		<edge from-layer="41" from-port="1" to-layer="84" to-port="1" />
		<edge from-layer="41" from-port="1" to-layer="42" to-port="0" />
		<edge from-layer="42" from-port="1" to-layer="45" to-port="0" />
		<edge from-layer="43" from-port="0" to-layer="44" to-port="0" />
		<edge from-layer="44" from-port="1" to-layer="45" to-port="1" />
		<edge from-layer="45" from-port="2" to-layer="48" to-port="0" />
		<edge from-layer="46" from-port="0" to-layer="47" to-port="0" />
		<edge from-layer="47" from-port="1" to-layer="48" to-port="1" />
		<edge from-layer="48" from-port="2" to-layer="49" to-port="0" />
		<edge from-layer="49" from-port="1" to-layer="54" to-port="0" />
		<edge from-layer="50" from-port="0" to-layer="54" to-port="1" />
		<edge from-layer="51" from-port="0" to-layer="54" to-port="2" />
		<edge from-layer="52" from-port="0" to-layer="53" to-port="0" />
		<edge from-layer="53" from-port="1" to-layer="54" to-port="3" />
		<edge from-layer="54" from-port="4" to-layer="55" to-port="0" />
		<edge from-layer="55" from-port="1" to-layer="58" to-port="0" />
		<edge from-layer="56" from-port="0" to-layer="57" to-port="0" />
		<edge from-layer="57" from-port="1" to-layer="58" to-port="1" />
		<edge from-layer="58" from-port="2" to-layer="61" to-port="0" />
		<edge from-layer="59" from-port="0" to-layer="60" to-port="0" />
		<edge from-layer="60" from-port="1" to-layer="61" to-port="1" />
		<edge from-layer="61" from-port="2" to-layer="62" to-port="0" />
		<edge from-layer="62" from-port="1" to-layer="65" to-port="0" />
		<edge from-layer="63" from-port="0" to-layer="64" to-port="0" />
		<edge from-layer="64" from-port="1" to-layer="65" to-port="1" />
		<edge from-layer="65" from-port="2" to-layer="68" to-port="0" />
		<edge from-layer="66" from-port="0" to-layer="67" to-port="0" />
		<edge from-layer="67" from-port="1" to-layer="68" to-port="1" />
		<edge from-layer="68" from-port="2" to-layer="69" to-port="0" />
		<edge from-layer="69" from-port="1" to-layer="72" to-port="0" />
		<edge from-layer="69" from-port="1" to-layer="137" to-port="0" />
		<edge from-layer="70" from-port="0" to-layer="71" to-port="0" />
		<edge from-layer="71" from-port="1" to-layer="72" to-port="1" />
		<edge from-layer="72" from-port="2" to-layer="75" to-port="0" />
		<edge from-layer="73" from-port="0" to-layer="74" to-port="0" />
		<edge from-layer="74" from-port="1" to-layer="75" to-port="1" />
		<edge from-layer="75" from-port="2" to-layer="76" to-port="0" />
		<edge from-layer="76" from-port="1" to-layer="77" to-port="0" />
		<edge from-layer="76" from-port="1" to-layer="83" to-port="0" />
		<edge from-layer="77" from-port="1" to-layer="78" to-port="0" />
		<edge from-layer="78" from-port="1" to-layer="80" to-port="0" />
		<edge from-layer="79" from-port="0" to-layer="80" to-port="1" />
		<edge from-layer="79" from-port="0" to-layer="83" to-port="2" />
		<edge from-layer="80" from-port="2" to-layer="81" to-port="0" />
		<edge from-layer="81" from-port="1" to-layer="82" to-port="0" />
		<edge from-layer="82" from-port="1" to-layer="83" to-port="1" />
		<edge from-layer="83" from-port="3" to-layer="84" to-port="0" />
		<edge from-layer="84" from-port="2" to-layer="87" to-port="0" />
		<edge from-layer="85" from-port="0" to-layer="86" to-port="0" />
		<edge from-layer="86" from-port="1" to-layer="87" to-port="1" />
		<edge from-layer="87" from-port="2" to-layer="90" to-port="0" />
		<edge from-layer="88" from-port="0" to-layer="89" to-port="0" />
		<edge from-layer="89" from-port="1" to-layer="90" to-port="1" />
		<edge from-layer="90" from-port="2" to-layer="91" to-port="0" />
		<edge from-layer="91" from-port="1" to-layer="94" to-port="0" />
		<edge from-layer="91" from-port="1" to-layer="114" to-port="0" />
		<edge from-layer="92" from-port="0" to-layer="93" to-port="0" />
		<edge from-layer="93" from-port="1" to-layer="94" to-port="1" />
		<edge from-layer="94" from-port="2" to-layer="97" to-port="0" />
		<edge from-layer="95" from-port="0" to-layer="96" to-port="0" />
		<edge from-layer="96" from-port="1" to-layer="97" to-port="1" />
		<edge from-layer="97" from-port="2" to-layer="98" to-port="0" />
		<edge from-layer="98" from-port="1" to-layer="101" to-port="0" />
		<edge from-layer="99" from-port="0" to-layer="100" to-port="0" />
		<edge from-layer="100" from-port="1" to-layer="101" to-port="1" />
		<edge from-layer="101" from-port="2" to-layer="104" to-port="0" />
		<edge from-layer="102" from-port="0" to-layer="103" to-port="0" />
		<edge from-layer="103" from-port="1" to-layer="104" to-port="1" />
		<edge from-layer="104" from-port="2" to-layer="105" to-port="0" />
		<edge from-layer="105" from-port="1" to-layer="108" to-port="0" />
		<edge from-layer="106" from-port="0" to-layer="107" to-port="0" />
		<edge from-layer="107" from-port="1" to-layer="108" to-port="1" />
		<edge from-layer="108" from-port="2" to-layer="111" to-port="0" />
		<edge from-layer="109" from-port="0" to-layer="110" to-port="0" />
		<edge from-layer="110" from-port="1" to-layer="111" to-port="1" />
		<edge from-layer="111" from-port="2" to-layer="132" to-port="0" />
		<edge from-layer="112" from-port="0" to-layer="113" to-port="0" />
		<edge from-layer="113" from-port="1" to-layer="114" to-port="1" />
		<edge from-layer="114" from-port="2" to-layer="117" to-port="0" />
		<edge from-layer="115" from-port="0" to-layer="116" to-port="0" />
		<edge from-layer="116" from-port="1" to-layer="117" to-port="1" />
		<edge from-layer="117" from-port="2" to-layer="118" to-port="0" />
		<edge from-layer="118" from-port="1" to-layer="121" to-port="0" />
		<edge from-layer="119" from-port="0" to-layer="120" to-port="0" />
		<edge from-layer="120" from-port="1" to-layer="121" to-port="1" />
		<edge from-layer="121" from-port="2" to-layer="124" to-port="0" />
		<edge from-layer="122" from-port="0" to-layer="123" to-port="0" />
		<edge from-layer="123" from-port="1" to-layer="124" to-port="1" />
		<edge from-layer="124" from-port="2" to-layer="125" to-port="0" />
		<edge from-layer="125" from-port="1" to-layer="128" to-port="0" />
		<edge from-layer="126" from-port="0" to-layer="127" to-port="0" />
		<edge from-layer="127" from-port="1" to-layer="128" to-port="1" />
		<edge from-layer="128" from-port="2" to-layer="131" to-port="0" />
		<edge from-layer="129" from-port="0" to-layer="130" to-port="0" />
		<edge from-layer="130" from-port="1" to-layer="131" to-port="1" />
		<edge from-layer="131" from-port="2" to-layer="132" to-port="1" />
		<edge from-layer="132" from-port="2" to-layer="134" to-port="0" />
		<edge from-layer="133" from-port="0" to-layer="183" to-port="1" />
		<edge from-layer="133" from-port="0" to-layer="134" to-port="1" />
		<edge from-layer="134" from-port="2" to-layer="184" to-port="0" />
		<edge from-layer="135" from-port="0" to-layer="136" to-port="0" />
		<edge from-layer="136" from-port="1" to-layer="137" to-port="1" />
		<edge from-layer="137" from-port="2" to-layer="140" to-port="0" />
		<edge from-layer="138" from-port="0" to-layer="139" to-port="0" />
		<edge from-layer="139" from-port="1" to-layer="140" to-port="1" />
		<edge from-layer="140" from-port="2" to-layer="141" to-port="0" />
		<edge from-layer="141" from-port="1" to-layer="144" to-port="0" />
		<edge from-layer="141" from-port="1" to-layer="164" to-port="0" />
		<edge from-layer="142" from-port="0" to-layer="143" to-port="0" />
		<edge from-layer="143" from-port="1" to-layer="144" to-port="1" />
		<edge from-layer="144" from-port="2" to-layer="147" to-port="0" />
		<edge from-layer="145" from-port="0" to-layer="146" to-port="0" />
		<edge from-layer="146" from-port="1" to-layer="147" to-port="1" />
		<edge from-layer="147" from-port="2" to-layer="148" to-port="0" />
		<edge from-layer="148" from-port="1" to-layer="151" to-port="0" />
		<edge from-layer="149" from-port="0" to-layer="150" to-port="0" />
		<edge from-layer="150" from-port="1" to-layer="151" to-port="1" />
		<edge from-layer="151" from-port="2" to-layer="154" to-port="0" />
		<edge from-layer="152" from-port="0" to-layer="153" to-port="0" />
		<edge from-layer="153" from-port="1" to-layer="154" to-port="1" />
		<edge from-layer="154" from-port="2" to-layer="155" to-port="0" />
		<edge from-layer="155" from-port="1" to-layer="158" to-port="0" />
		<edge from-layer="156" from-port="0" to-layer="157" to-port="0" />
		<edge from-layer="157" from-port="1" to-layer="158" to-port="1" />
		<edge from-layer="158" from-port="2" to-layer="161" to-port="0" />
		<edge from-layer="159" from-port="0" to-layer="160" to-port="0" />
		<edge from-layer="160" from-port="1" to-layer="161" to-port="1" />
		<edge from-layer="161" from-port="2" to-layer="182" to-port="0" />
		<edge from-layer="162" from-port="0" to-layer="163" to-port="0" />
		<edge from-layer="163" from-port="1" to-layer="164" to-port="1" />
		<edge from-layer="164" from-port="2" to-layer="167" to-port="0" />
		<edge from-layer="165" from-port="0" to-layer="166" to-port="0" />
		<edge from-layer="166" from-port="1" to-layer="167" to-port="1" />
		<edge from-layer="167" from-port="2" to-layer="168" to-port="0" />
		<edge from-layer="168" from-port="1" to-layer="171" to-port="0" />
		<edge from-layer="169" from-port="0" to-layer="170" to-port="0" />
		<edge from-layer="170" from-port="1" to-layer="171" to-port="1" />
		<edge from-layer="171" from-port="2" to-layer="174" to-port="0" />
		<edge from-layer="172" from-port="0" to-layer="173" to-port="0" />
		<edge from-layer="173" from-port="1" to-layer="174" to-port="1" />
		<edge from-layer="174" from-port="2" to-layer="175" to-port="0" />
		<edge from-layer="175" from-port="1" to-layer="178" to-port="0" />
		<edge from-layer="176" from-port="0" to-layer="177" to-port="0" />
		<edge from-layer="177" from-port="1" to-layer="178" to-port="1" />
		<edge from-layer="178" from-port="2" to-layer="181" to-port="0" />
		<edge from-layer="179" from-port="0" to-layer="180" to-port="0" />
		<edge from-layer="180" from-port="1" to-layer="181" to-port="1" />
		<edge from-layer="181" from-port="2" to-layer="182" to-port="1" />
		<edge from-layer="182" from-port="2" to-layer="183" to-port="0" />
		<edge from-layer="183" from-port="2" to-layer="184" to-port="1" />
		<edge from-layer="184" from-port="2" to-layer="187" to-port="0" />
		<edge from-layer="185" from-port="0" to-layer="187" to-port="1" />
		<edge from-layer="186" from-port="0" to-layer="187" to-port="2" />
		<edge from-layer="187" from-port="3" to-layer="189" to-port="0" />
		<edge from-layer="187" from-port="4" to-layer="227" to-port="0" />
		<edge from-layer="188" from-port="0" to-layer="189" to-port="1" />
		<edge from-layer="189" from-port="2" to-layer="191" to-port="0" />
		<edge from-layer="190" from-port="0" to-layer="191" to-port="1" />
		<edge from-layer="191" from-port="2" to-layer="192" to-port="0" />
		<edge from-layer="191" from-port="2" to-layer="201" to-port="0" />
		<edge from-layer="192" from-port="1" to-layer="203" to-port="1" />
		<edge from-layer="192" from-port="1" to-layer="196" to-port="0" />
		<edge from-layer="193" from-port="0" to-layer="196" to-port="1" />
		<edge from-layer="194" from-port="0" to-layer="196" to-port="2" />
		<edge from-layer="195" from-port="0" to-layer="196" to-port="3" />
		<edge from-layer="196" from-port="4" to-layer="198" to-port="0" />
		<edge from-layer="197" from-port="0" to-layer="198" to-port="1" />
		<edge from-layer="198" from-port="2" to-layer="200" to-port="0" />
		<edge from-layer="199" from-port="0" to-layer="200" to-port="1" />
		<edge from-layer="200" from-port="2" to-layer="201" to-port="1" />
		<edge from-layer="201" from-port="2" to-layer="202" to-port="0" />
		<edge from-layer="202" from-port="1" to-layer="203" to-port="0" />
		<edge from-layer="203" from-port="2" to-layer="205" to-port="0" />
		<edge from-layer="204" from-port="0" to-layer="205" to-port="1" />
		<edge from-layer="205" from-port="2" to-layer="208" to-port="0" />
		<edge from-layer="206" from-port="0" to-layer="207" to-port="0" />
		<edge from-layer="207" from-port="1" to-layer="208" to-port="1" />
		<edge from-layer="208" from-port="2" to-layer="210" to-port="0" />
		<edge from-layer="209" from-port="0" to-layer="210" to-port="1" />
		<edge from-layer="210" from-port="2" to-layer="213" to-port="0" />
		<edge from-layer="211" from-port="0" to-layer="213" to-port="1" />
		<edge from-layer="212" from-port="0" to-layer="213" to-port="2" />
		<edge from-layer="213" from-port="3" to-layer="214" to-port="1" />
		<edge from-layer="213" from-port="4" to-layer="217" to-port="1" />
		<edge from-layer="214" from-port="2" to-layer="218" to-port="0" />
		<edge from-layer="214" from-port="2" to-layer="222" to-port="1" />
		<edge from-layer="215" from-port="0" to-layer="216" to-port="0" />
		<edge from-layer="216" from-port="1" to-layer="217" to-port="0" />
		<edge from-layer="217" from-port="2" to-layer="218" to-port="1" />
		<edge from-layer="217" from-port="2" to-layer="222" to-port="0" />
		<edge from-layer="218" from-port="2" to-layer="221" to-port="0" />
		<edge from-layer="219" from-port="0" to-layer="220" to-port="0" />
		<edge from-layer="220" from-port="1" to-layer="221" to-port="1" />
		<edge from-layer="221" from-port="2" to-layer="223" to-port="0" />
		<edge from-layer="222" from-port="2" to-layer="223" to-port="1" />
		<edge from-layer="223" from-port="2" to-layer="226" to-port="0" />
		<edge from-layer="224" from-port="0" to-layer="225" to-port="0" />
		<edge from-layer="225" from-port="1" to-layer="226" to-port="1" />
		<edge from-layer="226" from-port="2" to-layer="228" to-port="0" />
		<edge from-layer="227" from-port="1" to-layer="228" to-port="1" />
		<edge from-layer="228" from-port="2" to-layer="229" to-port="0" />
	</edges>
	<rt_info>
		<MO_version value="2022.3.0-9052-9752fafe8eb-releases/2022/3" />
		<Runtime_version value="2022.3.0-9052-9752fafe8eb-releases/2022/3" />
		<conversion_parameters>
			<data_type value="FP16" />
			<framework value="onnx" />
			<input_model value="DIR/best.onnx" />
			<model_name value="best" />
			<output_dir value="DIR" />
		</conversion_parameters>
		<framework>
			<author value="Ultralytics" />
			<batch value="1" />
			<date value="2025-12-06T12:44:38.362939" />
			<description value="Ultralytics YOLOv3-tiny model trained on D:\Documents\Work&amp;School\School\ESW\dataset/car/data.yaml" />
			<docs value="https://docs.ultralytics.com" />
			<imgsz value="[352, 352]" />
			<license value="AGPL-3.0 License (https://ultralytics.com/license)" />
			<names value="{0: 'Green Light', 1: 'Red Light', 2: 'Speed Limit 10', 3: 'Speed Limit 100', 4: 'Speed Limit 110', 5: 'Speed Limit 120', 6: 'Speed Limit 20', 7: 'Speed Limit 30', 8: 'Speed Limit 40', 9: 'Speed Limit 50', 10: 'Speed Limit 60', 11: 'Speed Limit 70', 12: 'Speed Limit 80', 13: 'Speed Limit 90', 14: 'Stop'}" />
			<stride value="32" />
			<task value="detect" />
			<version value="8.3.19" />
		</framework>
		<legacy_frontend value="False" />
	</rt_info>
</net>
